Model_Practice/LeNet/Avg_later_model.pth (torch, 249991 bytes, 10 tensors)

feature.0.weight f4 [6, 1, 5, 5]
00000000: 6cf4 e43b 7e54 b2bc e62c 6dbc 3370 ddbd
00000010: 3c28 25bd 3583 fc3d 1237 403e 62e7 613e
00000020: 70c4 04be 75c6 173d cc2b 833e bae7 643e
00000030: 2752 49bd 2510 4abe b4cd 67be 34a2 5f3e
00000040: 641a a43e 1bed d8bc 41e5 7ebd 7deb 1a3e
00000050: 3fb0 8d3e ef87 31bd 931e f03c 549f de3d
00000060: ebda 6abd 576f 083d 44ad a63d ec7a db3d
00000070: 2b5b 2c3e 949a 8b3d 9056 c53d 58bd 053e
00000080: 2d22 83bd e52d 833e f9af 0f3e 8953 953d
00000090: 3ee7 02be 8ae2 343e 245b ce3d cae6 1a3e
000000a0: c822 95bd ff44 bbbd 16ba 25bd 1265 bdbd
000000b0: f89c 52be ca53 37be b83d 4d3d 2f1b 96be
000000c0: c5b8 88be b4b8 3fbe 2fe6 af3c 75a1 6b3c
000000d0: 35db 13be 7032 063e 48b0 26be 7e1e b0bd
000000e0: ca07 223e ce7b 583e 0784 19be 079a febc
000000f0: 3ab3 cf3d e44d a4bd 9ba5 853d a2ac 773e
00000100: 6bb3 0d3e fb76 9ebd e4bb aebd 9e16 b3bd
00000110: 1e5f 15bd d3bb 4c3d 5a9c b03d 3bd0 4cbe
00000120: fcf9 1abd 88bb 393d bbce 733c 7da0 ac3e
00000130: bcac fe3e f0ef 553f 57f7 b93e 3597 263d
00000140: ae7c 4c3f 562d ba3f 4cd8 cb3f 109f a73f
00000150: da75 da3e 84f5 833f afd7 d53f 076f e43f
00000160: 9301 893f 6188 293f e767 803f 6151 a93f
00000170: d8ee ab3f 1a53 823f ab06 133f 4507 363f
00000180: 91b1 403f c756 473f dd74 373e 74eb 29be
00000190: da6f 4a3e 34f8 003e 8fba 6cbd 9bea 8d3e
000001a0: ff81 083d 0a07 18bd 4396 18be f1aa 8abd
000001b0: f39d 623e 4a64 c83d d228 1e3a a5dc 1abe
000001c0: 322f 03be 9af7 9fbc c3b8 b6bb 5534 77be
000001d0: fcd6 3cbd a1bf c1bd 64d9 e9bd 1ea1 843d
000001e0: ed57 8ebd 41a4 d7bd ee10 e5bc c4f1 c23d
000001f0: c387 26be 60d9 153d f25e 2e3e dab6 14bd
00000200: 9955 cfbd 8ebd f8bd 6d5d ec3d 4bf2 583e
00000210: 04c0 0b3e d147 26be bdbf 12be 3243 59bd
00000220: 01ca d6bc fcd8 6b3e 9051 413e 9d62 cebd
00000230: 5695 98bc 01cf a7bd 4866 7a3d fce3 913c
00000240: f4c8 f7bd 5253 de3d 2ade 1c3e 7055 cbbd
00000250: e7f4 b53d 6c22 05be
0.006987145 -0.021768805 -0.014476037 -0.10812416 -0.040321574 0.12329713 0.18771008 0.22060922
-0.1296556 0.037054498 0.25619352 0.22354022 -0.049150612 -0.19732721 -0.22637063 0.2183922
0.32051384 -0.026480248 -0.062230352 0.15128894 0.27673528 -0.043342527 0.029311454 0.10870233
-0.057337683 0.033309307 0.081385165 0.10716805 0.16831653 0.06816593 0.09635651 0.1306051
-0.06403003 0.25620952 0.14031972 0.07291324 -0.12783524 0.17664543 0.100759774 0.15127102
-0.072820246 -0.09144019 -0.04046067 -0.09247793 -0.20567691 -0.17903057 0.050107688 -0.29317614
-0.26703468 -0.18722802 0.021472065 0.014381756 -0.1443909 0.13105178 -0.16278183 -0.08599566
0.15823284 0.21140978 -0.1499177 -0.031079305 0.10141607 -0.08022669 0.06525727 0.24186948
0.13837974 -0.077375375 -0.08531931 -0.08744548 -0.036467664 0.04998381 0.08623572 -0.20001309
-0.03783606 0.04534486 0.014880831 0.33716193 0.4974116 0.8356924 0.36321518 0.040671546
0.79877746 1.4545085 1.5925384 1.3095417 0.4266804 1.03093 1.6706446 1.7846383
1.0703605 0.6622372 1.0031708 1.322796 1.3432264 1.018161 0.5743205 0.7110484
0.75270945 0.77866787 0.17915674 -0.16593724 0.1976923 0.12594682 -0.057795104 0.27718052
0.0333271 -0.037116088 -0.1490107 -0.06770886 0.22130565 0.097847536 0.00060333044 -0.15123232
-0.12810972 -0.019527245 -0.0055762245 -0.24141057 -0.046103463 -0.094603784 -0.11418417 0.06476043
-0.06950364 -0.10529376 -0.027962174 0.095187694 -0.16262726 0.036584258 0.17028406 -0.036307193
-0.10123748 -0.1214553 0.11541257 0.21186177 0.13647467 -0.16238333 -0.14330955 -0.053042598
-0.02621937 0.23031992 0.1887877 -0.10077403 -0.018625896 -0.0819378 0.0611327 0.017808907
-0.12098876 0.10855736 0.15319124 -0.09928405 0.08884602 -0.13001412

feature.0.bias f4 [6]
00000000: 4939 dd3c 8bb4 2b3d fd86 9fbc d24c 543e
00000010: 4fcc f73e f9b3 c13c
0.027004855 0.041920226 -0.019473547 0.2073243 0.48398063 0.023645388

feature.3.weight f4 [16, 6, 5, 5]
00000000: 3384 593b 4b91 7cbd ee77 38bd 3ea1 0dbc
00000010: 59d0 093d daaf 273d c356 473c 0dcb aa3d
00000020: e8d7 823c a511 363d 738f 8d3d aac1 283d
00000030: 008a 393d e88b 743b 85b0 873c 7afe 773d
00000040: 523a ef3c f336 993d 6cb3 243d bf1a 843c
00000050: e129 b8bc caea bcbd 05b1 cebb 367f 94bd
00000060: fe47 9d3b 1098 16bc 0bea c6bd 7591 9ebd
00000070: 51bf 6cbd dd10 66bc 66bb 95bd 792d e5bc
00000080: 81f0 153c dcb0 c83b 4a37 ed3b 2e55 90bd
00000090: a928 57bd b76b 3ebd b6c8 6dbd 3098 cdbc
000000a0: 0eb6 833c 82b2 f43c 32da 2bbb c991 4b3d
000000b0: b4dc 7ebc 9b77 a13d b07b e4bc d775 49bc
000000c0: 283d 0b3a 3f8d 443d 212f 5f3d ce25 ab3d
000000d0: bb7f 663d 1d98 7dbd aab9 203d 1b0e 9ebd
000000e0: 5b29 89bd b112 1abc 9cd6 ca3c f2e2 2c3d
000000f0: 3943 923c c450 c33d 557c 08bd c564 583c
00000100: a3c5 163c 806e 953d 12b8 9fbc d566 e13c
00000110: eb35 923c 9611 9dbc b2c4 e6bc 49bd 913d
00000120: ef47 a03d 2f6a d23c 391d 813d 31d8 c2bd
00000130: 44f0 e5bd f7f7 a5bd ab5c 91be c874 e4be
00000140: 6bb6 c7bd 1ee0 9c3d 8d22 a93d f6ec 82be
00000150: c374 2cbf 709b 883d 2461 a63e fcb2 fc3e
00000160: d3bb 5a3e 0fe9 0dbe b117 d93d 0bef d93d
00000170: a29f e03e 1e6a 0d3f 5d93 b53e 734f 5abe
00000180: b34a 84be 7c5f 92bc 2d15 a53e 85cb 533e
00000190: 31c8 4ebd df4b e93d e550 3bbc 2eb7 bb3d
000001a0: 2030 f93d 15bf febc 399a 903b 5615 303d
000001b0: 2b84 59bc ca48 ce3d 50cb 263d 087d 2c3d
000001c0: 726a 553c eb67 4cbd 5999 a13b f921 c33d
000001d0: e769 a03c 342c 7d3d 5ffe 84bd e6c0 453d
000001e0: 1361 8d3d 90c8 c03d b25e e33d cc05 cbbc
000001f0: debf ea3c 49ef c33c e4e6 923c 9335 b23d
00000200: 0503 b2bb 1515 983c 42b3 943b e136 463c
00000210: 442a 123d ec20 9f3d 6fdc b3bd af99 743d
00000220: 11f9 37bd 9034 63bd 1a2b 483c c727 9dbd
00000230: d4a6 0ebc dae4 4cbc 00aa 893c 9ff3 07bd
00000240: 4b9b b03d f3cc bd3c c48c 043d 7af2 73bd
00000250: 44b8 cebc 4b7e 62bd e140 77bd b9a8 48bc
00000260: 8d17 4c3d 1f80 a33c 603d da3c 1b22 b3bd
00000270: 03d4 923c b929 05be 9057 0f3d 82f0 aabd
00000280: 063a 8dba ee92 dfbc f4e1 06bd f654 d3bc
00000290: 12d4 b1bd a531 893d fe98 943c 4e1b b7bb
000002a0: a086 a03d b52d 1abd f105 5dbc 2bdf 77bd
000002b0: 0af1 9e3c 2e3e 4cbd 47ce 903c e509 553d
000002c0: 54b3 a63d 1223 cabc e5d1 99bc c9d4 a43d
000002d0: 10d9 1d3d 8190 0f3e e8bb 9c3d d407 6938
000002e0: 98ce ffbc 33ca 523d 3fbc 0fbd a10d 4abd
000002f0: 7c83 b03c b496 6fbd 8276 28bd 1ef1 81ba
00000300: f85b 413d a2da 32bc 1b67 9bbd 2f45 a13d
00000310: aed3 c5bb 0864 853d 290d 9f3d dce8 863d
00000320: 77c3 743d f273 b13c 4b28 ba3d fba6 65bd
00000330: f28e a1bd 329b 903d 0a97 52bc f7dc 07bd
00000340: 307d 63bc d34c cabb 508a 6e3d b048 563c
00000350: 1ef6 0abd 43de 3ebd 0e2c a5bd 1899 4ebd
00000360: 5e6f 823d 7bcc 3abd b00b 4a3d b43e 773d
00000370: 4e31 873c 85a3 3abb 6eac 683d 9528 e6bc
00000380: 3f82 a0bd f006 993e 7162 ee3e 50d4 d43e
00000390: 94a2 633e 4ab6 123e a514 86be 477b 90be
000003a0: 6a12 38be 1bed 64bd 9109 ce3b 5b93 0dbf
000003b0: b3d8 23bf 1874 e8be 3c22 8cbe 3e26 3bbd
000003c0: da6f 2a3e 0864 523e db9a 073e f0fb fa3d
000003d0: 086d fcbc 9d96 d13e 860a 4e3e e45b 023e
000003e0: c774 fc3b 029d 92bd 8428 60bd 5740 8ebd
000003f0: e371 5ebd 1e23 33bd 0c64 2bbb 6acf fb3d
0.003319037 -0.061662 -0.04503625 -0.0086444 0.03364596 0.04093919 0.012166682 0.0833951
0.015972093 0.04445042 0.069121264 0.041200317 0.045297623 0.0037314836 0.016563663 0.060545422
0.029202614 0.07481184 0.040210173 0.016126035 -0.022480907 -0.0922447 -0.0063077235 -0.07250826
0.004799842 -0.009191528 -0.09712609 -0.077425875 -0.05779964 -0.014042106 -0.07311134 -0.027975785
0.009151579 0.006124599 0.007239257 -0.07047497 -0.05252901 -0.046489444 -0.05805274 -0.025096983
0.016078021 0.029870275 -0.0026222584 0.04969958 -0.015555549 0.07884141 -0.02789101 -0.012296162
0.0005311542 0.047986265 0.054488305 0.0835682 0.056274157 -0.061912645 0.039239563 -0.07717534
-0.06697341 -0.00940387 0.024760537 0.04220862 0.01785432 0.09536889 -0.033321697 0.013207619
0.009202394 0.07296467 -0.019496951 0.027514854 0.017847976 -0.019173425 -0.028169964 0.071161814
0.0782622 0.025685398 0.06304402 -0.095138915 -0.11227468 -0.08103936 -0.28391013 -0.44620347
-0.0975159 0.076599345 0.08258543 -0.25571412 -0.67365664 0.06670272 0.32495987 0.49355304
0.21360712 -0.13858436 0.10600222 0.10641297 0.4387179 0.55240047 0.35463992 -0.2131937
-0.2583824 -0.017867796 0.32242718 0.20683105 -0.050483886 0.113914244 -0.011432861 0.09165798
0.12167382 -0.031096974 0.004412916 0.042989098 -0.01327614 0.10072477 0.040721238 0.042111427
0.013025867 -0.04990379 0.0049316105 0.09527964 0.019581748 0.061809734 -0.0649383 0.048279665
0.06903281 0.09413254 0.11102046 -0.024783038 0.028655943 0.023917811 0.017932363 0.08701625
-0.005432489 0.01856474 0.0045379708 0.012098045 0.03568484 0.07769951 -0.08782279 0.059716877
-0.044915263 -0.05547005 0.012217307 -0.076736026 -0.008706767 -0.012505734 0.016804695 -0.03319132
0.0862337 0.023169016 0.032360807 -0.059557416 -0.02523435 -0.055296224 -0.060364608 -0.012247258
0.049827147 0.019958554 0.026640594 -0.087467395 0.01792336 -0.13004197 0.034995615 -0.083466545
-0.0010774739 -0.027291741 -0.03293033 -0.025797348 -0.08683027 0.06698922 0.018139359 -0.005587972
0.07838178 -0.037641246 -0.013490186 -0.060515564 0.019402046 -0.049863987 0.017676486 0.05201139
0.08139673 -0.024674926 -0.018776843 0.08048398 0.038537085 0.14019968 0.07653028 5.555882e-05
-0.031226441 0.051462363 -0.035091635 -0.049329404 0.021547072 -0.05849333 -0.041128643 -0.0009913777
0.04720685 -0.010916384 -0.07588025 0.07874524 -0.006037197 0.0651322 0.07766182 0.06587383
0.059756722 0.021661732 0.090897165 -0.056067448 -0.07888593 0.07060851 -0.012853393 -0.033169713
-0.0138848275 -0.006173709 0.058237374 0.0130788535 -0.033926122 -0.046598684 -0.080650434 -0.05043897
0.06368898 -0.045605164 0.049327552 0.060362533 0.016503002 -0.0028478813 0.056805067 -0.028095523
-0.078373425 0.29888105 0.4655948 0.41568232 0.22229987 0.1432735 -0.26187626 -0.28219053
-0.17975774 -0.055890184 0.0062877615 -0.5530297 -0.6400253 -0.45401073 -0.2736987 -0.045690767
0.1664423 0.20545971 0.13242666 0.122550845 -0.030813709 0.4093522 0.20121202 0.12730366
0.0077043506 -0.07158853 -0.05472614 -0.069458656 -0.05430783 -0.043734662 -0.0026152162 0.122954205

feature.3.bias f4 [16]
00000000: 05cd 0d3e 520a c73a 7485 c63d 6157 393d
00000010: e49b 25bd 49f6 a63d f44d 163d a4a6 cd3c
00000020: d73d 9dbb 8c2c 9c3c 44de d8bb c382 37bc
00000030: 891c b03d b78b 243d 7e9f 133e ff48 95bd
0.1384774 0.0015185571 0.09693423 0.045249347 -0.040431872 0.08152444 0.036695436 0.025103875
-0.0047986316 0.01906421 -0.006618293 -0.01120061 0.08599193 0.040172305 0.1441631 -0.072893135

classification.1.weight f4 [120, 400]
00000000: 9c91 2abd 820a bcbd 63a4 4dbd 6f4e 7abc
00000010: 94cc 433d 05c0 02bc 3abe 95bb 872c 743d
00000020: 5e46 dd3b c7ee f1bc 9cb0 c1ba bdef 633d
00000030: ff97 923c 2db9 ae3d 3e57 b9bc 2ebd 343d
00000040: b30b 353d 2e19 f0bc 2de3 bcbd a395 8dbd
00000050: a6a7 913d 1d12 713d ba4a d6bc c81b c4bd
00000060: 5876 a2bd 332c adbc 7afd 0fbd 7558 853a
00000070: 08d7 973c 0e1b e23c 8a4c c4bc 5494 033d
00000080: 55cc ccbc 30bb 733c 3006 ec3d ebb3 823c
00000090: 75f6 323d 8de3 133d 6ee5 2cbd 6055 7d3c
000000a0: 25e3 5e3c dc0f 6ab7 ce07 4e3c 46f0 89bd
000000b0: 4a82 37bd f750 3f3d 645a ad3c 4e15 383d
000000c0: 7487 4cbd 9988 323a 05e0 b8bd 625a b2bd
000000d0: f63e 0d3c 6e70 ddbc 9400 5d3d 1233 783c
000000e0: fd19 4e3d 009c 3a3d 58b3 12bc fbfc d7bc
000000f0: 4757 0cbc 9cd1 48bd 6322 06bd 3dee 98bc
00000100: 6104 74bd 236d 73bc d246 733d 2393 eb3c
00000110: 5884 d6bd 5dff b2bd 34d2 3abd f101 babb
00000120: 51b3 6cbd 2d98 f93b 9944 b9bc fed3 64bd
00000130: 145c e43c a4d9 723c 226e 30bc ef57 31bd
00000140: 0eb9 c2bc e3f9 42bc 3f57 24bd 0c4f 2cbc
00000150: 0e9d 37bd 47db f4bc f59b 14bd 7bee a2bc
00000160: 103d 30bc 6366 4c3d fd15 66bc 5470 7dbd
00000170: 9c3d a2bc 3af0 033d 6fff 183d 5cb5 bfbc
00000180: cc42 3bbd 8090 94bb 2eb2 d03c f99d 943d
00000190: a7ec 2f3c 9ff6 0c3d d8fe 0fbd e520 9cbb
000001a0: 9b46 9abd 43c5 133c e63b a0bd d3dd c7bd
000001b0: 76c4 213d 7971 babc b125 8a3d 0c2b 973d
000001c0: 1f83 49bc 72de 8d3d 81cb 393d 9610 443d
000001d0: 713a 103d 4bc1 debb c5b5 923d 6441 3a3c
000001e0: 1dd6 89bb 9afb 38bd 62cc 5f3c da72 5c3d
000001f0: ff63 cbbc 1a99 7b3d efb7 073c 398c 93bc
00000200: b9cb 47bb af3a 0e3b 4fd6 b4bc bd68 4dbd
00000210: 0ace 92bd 1aa9 833b 4e97 5cbc cd8e 843d
00000220: da67 be3b cb97 ddbc eb1d 883d 5290 623d
00000230: e105 013d 2499 1a3d 9b55 013d a9cc df3d
00000240: 0a77 e33d 6f8c d63c e588 acbd 4957 9dbd
00000250: 1707 4b3d 9d58 4e3d f932 e8bc 1d13 ea3b
00000260: 56d1 27bd d457 cf3c e984 45bd 4685 8b3c
00000270: 561a 65bd 9262 0fbd 0596 e8bc 1cbb 44bd
00000280: b11d 0bbb 2e93 1abd aae4 fbbb ae7d 7cbc
00000290: b68f 183c 85e8 813c f5c3 38bd d5cf 26bd
000002a0: 7ae9 e33c bdab abbb 3a95 a7bc c45b ebbb
000002b0: f7d4 09bd 5c74 293b 93f7 bc3b 1075 853b
000002c0: 1199 983c 1ac4 783c 0e74 203d 83b3 e33c
000002d0: 0f38 e4bc fb69 703b c2cc 1d3d f5fe 3abd
000002e0: de23 62bb 01e2 273d b0cd 883c 898b 543d
000002f0: 1dab 8dbc 4b09 683c dc9b 833c 3956 383a
00000300: a2bb 373d 4823 123c 92ad 3e3d 9207 3c3d
00000310: efe3 6b3c ce74 19bd 97a9 b4bc 1637 2fba
00000320: 5a00 8abd 0372 1abd 3ac0 13bd 741f da3c
00000330: 5570 323d c099 87bd a005 13be 7a38 c3ba
00000340: d4e9 393d b43f ea3d a574 dabb e096 b6bd
00000350: 5a88 643d 513a 033d f7db b2bd 1933 9c3c
00000360: 6273 8bbc fe55 e9b9 388e 7abc 3abf 81bd
00000370: f51e ac3d 9f79 0c3e 5dea c33d 9c00 e5bd
00000380: 03d4 08be e5f5 0b3d b530 e7bc cb29 463d
00000390: dc71 e93a f2bb 41bb bd3a 05bb aed4 bbbc
000003a0: 9f4a 0bbd abe5 853c ccb2 dc3d b096 a33d
000003b0: 91d3 af3b 1a21 a4bd e6f6 22bd 0026 e5bc
000003c0: 57b8 aa3c 0990 fb3c b305 5dbd 8722 37bd
000003d0: 7488 cb3c 9d2f ca3d 8ca9 143e 571f 1f3c
000003e0: 28d5 1a3d 5621 af3c c293 24bd 271c a3bd
000003f0: f3f0 aa3d 341e eebb c551 383b c140 53bd
-0.04164277 -0.09181692 -0.0502056 -0.015277489 0.047802523 -0.007980351 -0.004569796 0.059612777
0.006752773 -0.029532803 -0.0014777365 0.055648554 0.017894743 0.08531413 -0.022624608 0.04412573
0.04420061 -0.029308882 -0.09223018 -0.069133066 0.071120545 0.058855165 -0.02615868 -0.09575611
-0.079327285 -0.02113924 -0.035153843 0.0010173457 0.018535152 0.027600791 -0.023962278 0.03212388
-0.024999777 0.014876172 0.11524618 0.015954932 0.04369207 0.03610568 -0.04221099 0.0154622495
0.01360396 -1.3951179e-05 0.012575103 -0.06735282 -0.044801988 0.046708073 0.021161266 0.044942193
-0.049933866 0.0006810516 -0.09027103 -0.087086454 0.008620968 -0.02703115 0.05395563 0.015148895
0.050317753 0.04555893 -0.008953892 -0.026365748 -0.00856573 -0.049028024 -0.032747637 -0.018668288
-0.05957449 -0.014857563 0.05939371 0.028756684 -0.10474461 -0.08740113 -0.04561062 -0.005676501
-0.057788197 0.0076170177 -0.022615718 -0.055866234 0.027875938 0.014822397 -0.010768445 -0.04329675
-0.023769882 -0.011900398 -0.040122267 -0.010516893 -0.044827513 -0.029889716 -0.036281545 -0.019889107
-0.010756746 0.04990233 -0.014043328 -0.061874703 -0.019804768 0.03221152 0.037352975 -0.023401909
-0.045718 -0.0045338273 0.025475588 0.072566934 0.010737575 0.034414884 -0.035155147 -0.0047646635
-0.07532998 0.009019199 -0.07823925 -0.097591065 0.039494 -0.022759186 0.0674547 0.073812574
-0.012299328 0.06927194 0.045360092 0.04786738 0.035211984 -0.0067979447 0.07163576 0.011368129
-0.0042064325 -0.04516182 0.0136595685 0.05382047 -0.024827955 0.061425306 0.008283599 -0.0180112
-0.0030486418 0.0021702459 -0.022074847 -0.050148714 -0.07168205 0.004017961 -0.013463808 0.064725496
0.00581072 -0.02704992 0.066463314 0.055313416 0.031499747 0.037743703 0.03157578 0.10927708
0.11106689 0.02619001 -0.08424548 -0.07682664 0.04956731 0.050377477 -0.028344618 0.0071433918
-0.040971123 0.025310434 -0.048222456 0.017031323 -0.05593332 -0.035006113 -0.028391847 -0.048030004
-0.0021227414 -0.037738018 -0.007687171 -0.015410824 0.009311607 0.015857944 -0.045108754 -0.040725548
0.027821291 -0.0052389787 -0.020456899 -0.00718257 -0.033650365 0.002585671 0.005766818 0.004072793
0.018627675 0.015183473 0.03917318 0.027795559 -0.027858762 0.0036684263 0.03852535 -0.045653302
-0.0034506242 0.04098702 0.016699642 0.051890884 -0.017293507 0.014162372 0.01606553 0.0007031891
0.044856675 0.0089195445 0.04655225 0.045905657 0.014397605 -0.03746491 -0.022053523 -0.00066839287
-0.06738348 -0.037706386 -0.036071993 0.026626326 0.04356416 -0.06621122 -0.14357615 -0.0014894151
0.04538901 0.11437932 -0.006666737 -0.08915496 0.055794097 0.032038037 -0.08733361 0.019067334
-0.017022792 -0.00044505292 -0.015292697 -0.06335302 0.08404342 0.1371827 0.095661856 -0.11181757
-0.13362126 0.03417005 -0.028221468 0.0483797 0.0017810422 -0.0029561487 -0.00203292 -0.022928562
-0.03400671 0.016344866 0.1077629 0.07987726 0.005365797 -0.08014126 -0.039786242 -0.027972221
0.020839853 0.03070833 -0.053960513 -0.044710662 0.02484534 0.09872363 0.14517802 0.009712062
0.037800938 0.0213782 -0.040179975 -0.07964354 0.08346739 -0.007266784 0.002812491 -0.051575426

classification.1.bias f4 [120]
00000000: 8770 17bc 8be3 1fbd 60cd 88bb 478c 02bd
00000010: 4817 43bd 8e2f 7f3d a066 4b3d 5f18 39bc
00000020: 4520 b63d fb67 03bb 3212 2c3d 828b c53c
00000030: 1a42 123d 2dfe 21bd c1c1 0bbd 8519 c5bc
00000040: cc46 ba3c 898b 0d3c 08ca cbba 1906 1cbb
00000050: 80e9 893a 59ce 913b 6d60 b03c cd62 043d
00000060: 11d7 783c 74e9 f9bc 0f5b 9e3c 1097 4d3d
00000070: d694 9b3d bc00 d9ba 9be3 6f3d 382b 0e3d
00000080: 3d2a 8fbb 9ccb febc defa 2e3d a30e e13c
00000090: be59 b7bc 054d 25bb 0df8 5a3d eb3c 53bc
000000a0: f182 3ebc 02db 17bd f31e bc3c 6e70 1d3d
000000b0: 6d9a 503d 2cab 54bd 0f92 5c3c 540e 3d3d
000000c0: 37b5 ef3b 66b9 f43a 5ed5 673d 302b d9bc
000000d0: b82e 113c 4d73 d63c 3e14 06bd ab7c 2fbc
000000e0: b475 0dbb 6511 d23c 9c1e 443d a447 0d3d
000000f0: 3cb5 ff3c cf28 453d f3cc 3a3d 44db 71bc
00000100: 05b0 023d 4b7a 9abc 5597 d1bc 5bf1 cc3c
00000110: b125 49bd b8e3 463d 8380 cebc aabd e6ba
00000120: 3dcd ba3c 39bc bbbc f535 5c3d f446 aabc
00000130: 357a 0bbd 94ca cbbc 6a1b 3a3d ae51 eabc
00000140: e161 a03c a18d 4b3d 629a 9a3c 46e6 6d3d
00000150: 22dd af3c b9c8 4ebd 5da9 bdbc 8713 0fbd
00000160: 0031 93bc 235c a03c e93e 23bd 2d5a 50bd
00000170: 9fb7 31bd f370 02bd d37f c13b 110a 08bd
00000180: a8f6 fa3c 0f1a d03b 37d6 f6bc 7955 38bc
00000190: 861f 4c3b ea44 833c bfa9 be3c aa42 533d
000001a0: a1bc 6b3c d8c3 88bc 96d8 a7bc 5d3d dcbc
000001b0: 3bba 03bd 39ed c5bc 1d28 d53c 4665 6fbd
000001c0: 7555 543c 5dcf 25bd 4967 9dbc 6d92 d1bc
000001d0: 7f8d dbbc 8cc4 543c aff9 933d df7e 123a
-0.009243137 -0.03903536 -0.0041748732 -0.03187206 -0.047629625 0.06230121 0.049658418 -0.011297314
0.08892874 -0.002005099 0.04200954 0.024114374 0.03570757 -0.03954904 -0.034120325 -0.02406002
0.022738837 0.008639225 -0.0015547881 -0.0023807345 0.0010521859 0.0044496474 0.021530354 0.032320786
0.015187995 -0.030506827 0.01933053 0.050192893 0.075967476 -0.0016556005 0.05856667 0.034709185
-0.004369049 -0.031102948 0.042719714 0.0274728 -0.02238166 -0.002522291 0.053459216 -0.012892942
-0.011627899 -0.037074097 0.022963976 0.0384373 0.050928522 -0.051921055 0.013462557 0.046156242
0.0073153037 0.0018670976 0.056599967 -0.026509851 0.008861236 0.026178027 -0.03273415 -0.0107108755
-0.002158505 0.02564306 0.047880754 0.03449215 0.031214349 0.04813462 0.04560561 -0.01476175
0.031906147 -0.018857142 -0.025584856 0.025017431 -0.04910821 0.048557013 -0.025207764 -0.0017604132
0.022802943 -0.0229169 0.053762395 -0.020785786 -0.034052093 -0.02487687 0.0454363 -0.028603401
0.019577922 0.049695615 0.018872444 0.058080934 0.021467749 -0.050484393 -0.023152048 -0.034930732
-0.017967701 0.019575184 -0.039854918 -0.05086725 -0.043388005 -0.031845998 0.0059051304 -0.033212725
0.030635193 0.0063507627 -0.030131442 -0.011250847 0.003114672 0.016024072 0.0232743 0.051577248
0.014388234 -0.016694948 -0.020489018 -0.026884729 -0.032160025 -0.024160968 0.026020104 -0.05844619
0.012959828 -0.04048096 -0.01921429 -0.025582517 -0.026800869 0.012986314 0.07225358 0.0005588363

classification.3.weight f4 [84, 120]
00000000: 29d5 2bbd 87cf d3bc df44 c2bd d956 f23d
00000010: 1051 abbd 7bb7 8ebd b6fa c43c c843 3a3c
00000020: 904d 113d 789d 173e c21f 8d3d 1b0f bebd
00000030: 0ed1 823d 017a 9c3c caf1 f93c 18e4 e3bc
00000040: bfa9 ecbb a76e 833c ed46 9cbd 890c 133d
00000050: 33e6 ba3c 5a2a babd c05e 053c 3e38 543c
00000060: c2e9 f6bd 5601 983c 663a 58bd 6423 c3bd
00000070: a227 8cbc 5a73 c3bc a1c1 67bc 89bb 923d
00000080: 1d0b 4cbd 3b9b 25bd 0da4 96bd 8e49 173d
00000090: a5d8 a6bd 761c a8bd 250a 2cbd 8591 063e
000000a0: f179 2abd 6013 b03c 3619 cb3a aad3 bebc
000000b0: a97a 12bd 69ff c73d 7a71 3c3d 7091 d3bd
000000c0: 182e 35bd 57e3 b63c f994 f63c 9ba6 223c
000000d0: b32e bb3b 7fe0 c13d 0c08 053c 3ed7 b33c
000000e0: d02d df3c ad2a 87bd 0b23 e23d 10b8 953d
000000f0: ea19 d2bd a70c 84bd d318 adbd 89e0 74bd
00000100: 15bd 55bd 5144 72bd aa61 2e3c edc1 db3d
00000110: 5cd7 043d c7ca 5bbd 626e 3c3d 2b9e 04bd
00000120: bc3c 493c 00cf 86bc 4cdf c03b e919 133e
00000130: 77bd 7d3d f1e8 963c 1d85 adbd 9067 a4bc
00000140: a867 18bd adf3 18bd 48d9 8abc 94b4 8fbc
00000150: b57b a4bd e8a4 093e a547 95bd 016d 2abd
00000160: bd73 a53d cf95 6cbc 5e06 e7bd 2c5c d53d
00000170: 64d3 4bbd 387b 063d db55 4abc 92d4 b23d
00000180: ba6a 5cbd 557d 463d f78d 84bd 9a46 d13c
00000190: 571b 623d 3619 aabd 7466 eebc a01e 8ebd
000001a0: d3b0 65bd 35d0 703d af72 98bd a8d6 a13b
000001b0: 30cd 5c3d 2001 1c3d f8e3 b63c 8ac2 d33d
000001c0: fc06 303b 77ed cabd 02d8 cabc 43ed c3bd
000001d0: 8e73 313d ff04 1ebd aa86 673a 522e 033d
000001e0: f64a 663d e723 313d 0d06 d73d e5e4 e5bd
000001f0: 122b c23d 5b7a 4c3d 71dc 5ebd a108 98bd
00000200: 79d1 863d 2f4c 393d f253 ac3d 08d6 58bd
00000210: 24c7 a23d 48ce b13d 3d23 72bd 7085 9fbd
00000220: 18ed 22bd 0d7f 263d 1862 743c 45b8 803d
00000230: d3f7 133e ed82 593d 4612 963c 2af6 283d
00000240: 00de c13d 02dc 9b3d 77e1 2a3d fbd0 443d
00000250: 1ec5 1d3e e85c 1fbe 53a2 93bc 2f8d 033d
00000260: 54b1 b2bd a3e2 aabc dbf0 aabc 6478 903c
00000270: 8f72 69bd 1cd0 943d 941e 673b a0f2 1dbd
00000280: e9b6 99bd f538 df3c edfc 583b cc62 4f3e
00000290: 72ee 363d c497 8ebd 8f08 20be 15a4 aa3d
000002a0: 50f6 85bc 220c 4bbd bb85 84bc 7367 0a3c
000002b0: ee3f 55bd cb8d e03d 60e3 23bd e50a 013e
000002c0: 076f 6abd 9c44 633e d8de 653d a7f9 80bd
000002d0: 7157 e63d 8f10 b3bc 62de 14bc 200a fbbd
000002e0: 4490 ad3d 2124 6abd 371c 3cbb 6856 8c3d
000002f0: c396 8dbc 1d95 30bd 9ea6 a9bd b849 ac3d
00000300: bd87 273e d4c5 fdbd 018f 8f3c 2676 963d
00000310: 2d36 c6bd 648a 433d 5e62 8e3d 3777 ed3d
00000320: b7d5 87bd 845c 003d 4d86 56bd ff69 893d
00000330: a868 2abd d45f 323d c105 293e 3115 8f3d
00000340: 362f d33d cc1c 923d 9092 d43d 6336 afbd
00000350: 4e96 563d 6db8 43bc 50aa 0dbd a67b 7ebd
00000360: 26ff 703d f279 c7bd d30f 3e3d f739 353e
00000370: 8034 093e 053b 31bd e3ac 6e3d f262 653c
00000380: 44d5 03bd 6575 f6bc a7a5 97bd 59dd 70bb
00000390: 28a4 be3c cde7 99bd 9858 06be b4d7 75bd
000003a0: 80c5 8c3d 4ad6 533e b7b1 bd3d ee25 42bb
000003b0: 4a91 5abd c698 ce3d 05cf 20bd c644 9bbc
000003c0: 0ea4 2e3e 8e77 bc3d f143 88bd 665f 98bb
000003d0: 3e78 9a3c 0b73 89bd 04c5 683a 9e42 3c3e
000003e0: dd59 593d 6043 eb3d 6841 9dbd 97ff 32be
000003f0: db7a a63d dd0f 9fbd ca9d 87bd adaf 86bd
-0.041951332 -0.025855793 -0.09485792 0.11832971 -0.08365071 -0.0696859 0.02404533 0.011368699
0.03547436 0.14806163 0.06890823 -0.09280225 0.0638753 0.019101145 0.030510802 -0.027818725
-0.0072223837 0.016043974 -0.076307155 0.035900626 0.022814846 -0.09090109 0.008140266 0.012952862
-0.120563045 0.018555325 -0.052790068 -0.095282346 -0.017108742 -0.023858715 -0.014145286 0.07164676
-0.049815286 -0.040431242 -0.07355509 0.03693538 -0.081467904 -0.082085535 -0.042001862 0.13141449
-0.0416202 0.021493614 0.0015495184 -0.023294289 -0.03576151 0.097655125 0.046006657 -0.103304744
-0.04423341 0.022325201 0.030100333 0.009927417 0.005712354 0.09466647 0.008119594 0.021953221
0.027243525 -0.06599937 0.1104184 0.07310498 -0.10258849 -0.06447726 -0.084520005 -0.059784446
-0.052182276 -0.059147183 0.010643402 0.10730348 0.032431945 -0.05366018 0.046003707 -0.032377403
0.012282547 -0.016456127 0.005885994 0.14365353 0.061948266 0.018421622 -0.08472655 -0.020068914
-0.03720823 -0.037341762 -0.01694931 -0.017542161 -0.08031408 0.13441813 -0.07289056 -0.04160786
0.08078716 -0.014440014 -0.11280511 0.10417971 -0.049762145 0.032832354 -0.012349571 0.08731951
-0.05381272 0.04845937 -0.0647239 0.02554636 0.055201855 -0.0830559 -0.029101588 -0.06939435
-0.056076836 0.05879231 -0.07443749 0.004938919 0.05390662 0.03808701 0.0223255 0.1033984
0.0026859632 -0.09908574 -0.024761204 -0.095667385 0.043323092 -0.038578983 0.0008832017 0.032026596
0.056223832 0.04324713 0.10499201 -0.11225299 0.09480871 0.049921375 -0.054409448 -0.07423521
0.065829225 0.04523867 0.08414449 -0.05293849 0.07948139 0.08681923 -0.059115637 -0.07789123
-0.03977689 0.04064851 0.0149159655 0.062851466 0.14450006 0.053103376 0.01831926 0.041250385
0.09466171 0.076103225 0.041718926 0.04805086 0.15407225 -0.15562785 -0.018021738 0.032117065
-0.08725229 -0.020860022 -0.020866802 0.017635532 -0.056994017 0.07266256 0.0035266029 -0.038561463
-0.075055905 0.027248839 0.003310974 0.20252532 0.044660993 -0.06962541 -0.15628265 0.083320774
-0.016352803 -0.049572118 -0.016177049 0.008447516 -0.05206292 0.10964545 -0.040011764 0.12601812
-0.05723479 0.22194141 0.056120723 -0.062976174 0.11247147 -0.021858482 -0.009086223 -0.122577906
0.08474782 -0.05716336 -0.002870334 0.06852418 -0.017283803 -0.043110956 -0.08283733 0.08412498
0.16360374 -0.12391248 0.017524244 0.07346754 -0.09678302 0.0477394 0.06952356 0.11595004
-0.0663256 0.03133823 -0.052374173 0.0670967 -0.041603714 0.04354842 0.16506101 0.06986464
0.10311739 0.07134399 0.10379517 -0.08555295 0.052389435 -0.011945826 -0.03458625 -0.06212964
0.05883708 -0.09740056 0.04640181 0.17697893 0.13398933 -0.043269176 0.058270346 0.014000641
-0.032185808 -0.030085275 -0.074046426 -0.0036753027 0.023271635 -0.075149156 -0.13119733 -0.060020164
0.06873608 0.20687214 0.09262412 -0.0029624659 -0.053361215 0.10087733 -0.03925993 -0.018953692
0.1705477 0.09202491 -0.06653584 -0.0046500443 0.018856164 -0.06711396 0.0008879455 0.18384787
0.053064216 0.1148746 -0.07678491 -0.17480312 0.081289016 -0.077666976 -0.06621893 -0.06576476

classification.3.bias f4 [84]
00000000: db61 9ebd c777 c53d 1183 063e 00aa 8dbd
00000010: 4755 ffbc 9d8b 77bd 8421 16bc 7dac 0e3d
00000020: 0b35 e93d 2443 ca3d 8855 973d 2111 c33d
00000030: 8e5b ac3d 9eec 833c 8d4f 1abd 4e7b a83d
00000040: 9ed6 e1bc 6ce8 e93b f69a 7dbd 9f4e b2bd
00000050: 3baf 1dbd 333b 423c 1e30 143c c3f9 a1bc
00000060: 5f70 db3c e35f a5bc 7c4c d03c cd42 0b3d
00000070: 015c 99bd 8325 8a3c f1b4 cabd 6650 c8bc
00000080: 02de 833d 9d19 84bd 43bf 90bd cdbc 95bd
00000090: 3ee8 cc3c 4f8a 7b3c 1b60 edbc 8f21 4d3d
000000a0: 420b 21bc 2be2 b43c 4caa 8f3d b83f e53d
000000b0: 17c0 e33d 9225 663c f87c 983d 085b ff3d
000000c0: 859c ce3c 0477 043d e293 3abd daae 8bbd
000000d0: c2fc 523c 702f c1b9 ab35 aa3d 22e1 c83d
000000e0: 8c33 943c d565 693d 1561 2cbd 203f 47bd
000000f0: 3ce1 f0bc da0f a53d 5e4d 2a3c 5cc8 d63d
00000100: c5f0 873c f78d c3bc c325 6ebd 4b1b 58bd
00000110: 6b3d 8dbd 44b5 003d c24b b73d 7f8e 223c
00000120: 9e63 163d ca98 8abc bcce 693c 7e50 a3bd
00000130: ae34 21bd 95e8 a0bd ee92 5d3d 9631 203d
00000140: 3225 92bd 51c4 60bd 29b2 0c3e ebfb 0e3c
-0.07733508 0.09641986 0.13135935 -0.069171906 -0.031168593 -0.06043588 -0.009163264 0.034832466
0.1138707 0.09876087 0.07389361 0.095247515 0.084159 0.016104039 -0.03767352 0.082266435
-0.027568158 0.0071383025 -0.06191536 -0.08706402 -0.03849719 0.0118549345 0.009044675 -0.019772416
0.026786981 -0.020187324 0.025427096 0.033999253 -0.074882515 0.01686359 -0.09897793 -0.0244524
0.06438829 -0.06450198 -0.0706773 -0.073114015 0.025013085 0.0153528 -0.02897649 0.050080832
-0.009829344 0.022080502 0.070149034 0.11193794 0.111206226 0.014047043 0.07445711 0.12468535
0.025221119 0.032340065 -0.04555119 -0.0682046 0.012877645 -0.00036847172 0.083110176 0.09808566
0.018090986 0.05698188 -0.042084772 -0.048644185 -0.029404275 0.08059664 0.010394422 0.10487434
0.0165943 -0.023871405 -0.05814148 -0.052760404 -0.0689648 0.03142287 0.089499965 0.009921669
0.036716096 -0.016918559 0.014270481 -0.07974337 -0.03935688 -0.078568615 0.0540952 0.03910979
-0.07136001 -0.054874722 0.13739838 0.008727054

classification.5.weight f4 [10, 84]
00000000: 6327 913d a5f9 bc3c b53a a1be abaa e6bd
00000010: 6de2 be3c ba36 183e e208 a83e 91ec 6ebe
00000020: c691 6fbe b184 1b3e ce33 833c 50fa f03d
00000030: 9565 aa3d 46fd 393e 900f 4c3e 9340 9abd
00000040: 876b cc3d 8b8c 24bd 64e2 1d3e e9d9 95bd
00000050: 8e87 753c 03e1 8ebd 2f13 f43b a139 1bbd
00000060: a9be d3bd d61e a23d 126f 9fbe 902f 76bd
00000070: 8de1 04be 58b7 30bb 71d5 ca3e c25f 703d
00000080: faf1 69be 14c3 5b3e 5695 cb3d 2ce9 3abe
00000090: 6191 c53e dcd7 443e b574 1d3d 4780 8fbb
000000a0: 6929 44be 0756 2d3d ad11 8dbe 100e 48be
000000b0: 5670 57be 5ef8 a33d 96af e4bd 65c9 b3be
000000c0: d74b c2bd a4b3 91bc 9e57 3e3e 7928 9dbe
000000d0: ea1d a9bd 8755 1abe f8fe 7ebe 3635 0c3e
000000e0: e686 75be b39e 72be 6287 e63d 1589 2d3e
000000f0: abbc d33d de23 98be de1b 91be 7964 003d
00000100: 2985 8d3d cffc 2e3d d215 46bd 1f38 463e
00000110: 530d b53d 9b3e 5ebe e7bc 01be bbe7 623e
00000120: b10f 82be 2097 60bd 79f8 c6bc 81f0 563d
00000130: 634a debd 329e 8dbd 7270 783d 9aee 1e3e
00000140: f04e 203e d259 5cbe 68b0 0ebd 254a b1bd
00000150: 98c8 7c3e bf9a e53d f277 f93d bc8d 483d
00000160: 6168 0ebe b917 38bd 3539 80be 020e 083d
00000170: f1cd 64bd 883e 073e e460 6ebe 5e5c a1be
00000180: 8ad7 a43e 0689 90be 064f 1e3e 0478 8cbc
00000190: 5e00 ef3d 4e38 703e f94c 093e 4ef2 f63d
000001a0: 6b0e 9fbe 266f 19be a347 6cbe a798 673d
000001b0: a3e0 26be 13db 7bbe 9cf4 ddbb 2d7a 8e3e
000001c0: 4445 533d 282a be3b 8e88 613e c402 593e
000001d0: 659d d43c 2216 58be 9d24 e3bd fc04 16be
000001e0: fd0f 08bf 6000 e43d 2490 953e 8a2a d2bd
000001f0: 1eef 62bb 7934 943e 694c 073e ae2a 05be
00000200: 32c3 033d 467d b03d b9fa 963d d007 ab3c
00000210: 7a1b 873e e4fd aebd ce61 2ebe 1e3b 13be
00000220: b04e 38be 0509 b7bb d199 7cbe f185 04be
00000230: 073d 51be 48b7 7f3e 9471 143e e6c0 21be
00000240: 59be a9bd 5ae2 a43c 42b5 493e b420 583d
00000250: 3828 053d 9d07 e93e b23e 2d3e af93 53bc
00000260: f129 6bbe e59a 803e 0c53 6f3e acfa 3cbd
00000270: 1fca 993d e414 823d 4e89 24be a124 243e
00000280: 2e51 423e 5ad6 6f3d 4e0e 90be 7510 e3bd
00000290: 91b9 523e 471e 40be 9bff 803e f9a7 aa3d
000002a0: 05d8 16be e430 de3d 6ab7 72be a255 ee3c
000002b0: e797 28bd 923f cc3c c751 ee3d 846b eebd
000002c0: 0f63 803e 712e 20be 9895 c03e 1210 8abe
000002d0: 6904 88bb 8231 85be aee0 07be b9b6 69be
000002e0: 1c1d 543e 3e4b b93e 36f5 8dbd 6e61 87bd
000002f0: 38f9 7cbe bbfb 22be bb63 b43e 0632 c73d
00000300: 24fd 0fbb b804 4cbe bab0 abbd 34dd b3be
00000310: 26c3 503e aa3f 65bd 2dd7 a23e c625 9abe
00000320: 3f21 24be 5c16 9f3e fea5 903d 3841 10be
00000330: a64b a53a 9fd2 ffbd d31c 29be 5855 01be
00000340: 0c85 143d 3f75 9cbe e751 8cbe b2d7 d4bd
00000350: 40cd 803e 9c66 be3d 8e91 053c 10d7 08be
00000360: fd76 b3be ba38 cf3b 84dd dabb 430a 973d
00000370: 412c 19be 208e 94be 4a11 ba3e 0813 d4bd
00000380: fa68 80be 1368 1b3e 1834 613e 4d28 c6bd
00000390: 23ee 443d 0d52 a1be 3849 393e 15e5 033e
000003a0: c4b9 a63e 71d5 073e 57b9 20be a1cd 9e3e
000003b0: 70bb d33d 157d 77bc 115d 243e 9399 a43e
000003c0: 2fac 01be 6627 8ebc 9f5d 023e 3af8 673d
000003d0: 68f7 24be 3785 3e3e 78c6 363e 7253 8e3d
000003e0: 7bea 933e fa0a 943e 15c4 183e 31e9 0a3e
000003f0: d56b 95be 53e3 5dbe f58f 0b3e af63 d6bd
0.070875905 0.023068259 -0.31490102 -0.11263021 0.023301328 0.14864627 0.32819277 -0.2333243
-0.23395452 0.15187337 0.016015913 0.11766493 0.083201565 0.18163022 0.19927812 -0.07531848
0.09981447 -0.040173095 0.15418392 -0.07316954 0.014985932 -0.06976511 0.007448576 -0.037896756
-0.103391 0.07916038 -0.31139427 -0.060103953 -0.12976666 -0.002696475 0.39615968 0.05868507
-0.22846213 0.21461135 0.09940593 -0.1825301 0.38587478 0.19222969 0.03844138 -0.0043793055
-0.19156422 0.04231837 -0.27552548 -0.19536614 -0.21038947 0.08006357 -0.11166303 -0.3511459
-0.094871216 -0.017785855 0.18588111 -0.3069494 -0.08257659 -0.15071689 -0.2490195 0.13692173
-0.23977241 -0.23693351 0.11256291 0.16946824 0.1033872 -0.29714864 -0.28341573 0.03134582
0.06910164 0.042721566 -0.048360653 0.19357346 0.08840432 -0.2170357 -0.12669717 0.2215871
-0.25402597 -0.054831624 -0.024288403 0.052475456 -0.10854032 -0.06914939 0.06065411 0.15520707
0.15655112 -0.21518639 -0.034836203 -0.0865672 0.24685895 0.11211156 0.12181081 0.048963293
-0.13907005 -0.0449445 -0.25043646 0.033216484 -0.055860464 0.13207448 -0.23279148 -0.31515783
0.32195693 -0.2822954 0.15459833 -0.017147072 0.11669992 0.23458979 0.13408269 0.12057935
-0.31065688 -0.14983806 -0.23074202 0.056542065 -0.1629663 -0.24595289 -0.0067735445 0.27827588
0.05157973 0.0058033653 0.22024748 0.21192461 0.025953958 -0.21102193 -0.11090968 -0.14650339
-0.53149396 0.11132884 0.29211533 -0.1026202 -0.0034627388 0.28946283 0.13212742 -0.13004562
0.032168575 0.08617644 0.0737204 0.020877749 0.2638815 -0.085445195 -0.17029497 -0.1437802
-0.17998767 -0.005585792 -0.24668051 -0.1294172 -0.20433436 0.2497226 0.14496452 -0.15796241
-0.08288259 0.020127464 0.1969805 0.052765563 0.03250906 0.4551362 0.16918448 -0.0129136285
-0.22965218 0.25118175 0.23371524 -0.046137497 0.07509255 0.06351641 -0.16068003 0.16029598
0.1897628 0.05855403 -0.28135914 -0.11087123 0.205786 -0.1876155 0.25195011 0.083328195
-0.14730842 0.10849169 -0.2370278 0.029093567 -0.04116049 0.024932656 0.116366915 -0.11641601
0.25075576 -0.15642716 0.3761413 -0.26965386 -0.0041509164 -0.26014334 -0.13269302 -0.2282361
0.2071423 0.36190218 -0.06931536 -0.0661038 -0.24704444 -0.1591634 0.35232338 0.09726338
-0.0021970952 -0.19923675 -0.08383317 -0.35129702 0.20386943 -0.055968918 0.3180479 -0.30106944
-0.16028307 0.31071746 0.070629105 -0.14087379 0.0012611046 -0.12491345 -0.16514902 -0.12630212
0.036259696 -0.30558202 -0.27406237 -0.10392703 0.25156593 0.09296915 0.008152379 -0.1336329
-0.35051718 0.006323901 -0.0066792388 0.07375004 -0.14958288 -0.29014683 0.36341316 -0.103551924
-0.2508009 0.1517642 0.21992528 -0.096756555 0.048078667 -0.31507912 0.18094337 0.12880357
0.32563603 0.13265015 -0.15695702 0.31016257 0.10338485 -0.0151055055 0.16051127 0.32148418
-0.12663339 -0.017352771 0.12731026 0.05663321 -0.16110003 0.18605505 0.17849147 0.0694951
0.28889832 0.28914624 0.1491855 0.13565518 -0.29183832 -0.21668749 0.13629134 -0.10468232

classification.5.bias f4 [10]
00000000: 7f06 d83b 1da3 243e 05c1 963d 475b d0bc
00000010: b88a 4e3d 07db 2c3e cec8 253c 158f d0bb
00000020: 33e0 b63c 85c3 bd39
0.0065925713 0.16077848 0.07361034 -0.02543415 0.05042526 0.16880427 0.010118676 -0.006364713
0.022323703 0.00036194563
