Model_Practice/LeNet/Avg_best_accuracy_model.pth (torch, 249991 bytes, 10 tensors)

feature.0.weight f4 [6, 1, 5, 5]
000000 ae 9b f9 3a 9c 6e f5 bc 11 b6 ac bc 90 de e2 bd
       0.0019043589 -0.02995997 -0.02108291 -0.11077607
000010 99 9b 24 bd 3c 0c e5 3d 71 6e 33 3e b9 fe 58 3e
       -0.040187452 0.11183974 0.17522599 0.21190919
000020 73 4a 08 be 20 9c 13 3d 61 64 75 3e 27 ab 54 3e
       -0.1330965 0.036037564 0.23964073 0.20768414
000030 57 b4 74 bd 04 bf 4e be 13 1a 6a be 40 f9 4c 3e
       -0.059742298 -0.20190054 -0.22861509 0.20016956
000040 db a0 9b 3e 01 3e 1a bd fb 42 8b bd 75 73 17 3e
       0.3039616 -0.037656788 -0.06799885 0.14790137
000050 70 09 86 3e bb 11 67 bd 3d 76 a6 3c 7b f6 d2 3d
       0.26179075 -0.056413393 0.020320052 0.10300919
000060 49 40 7a bd 48 d1 da 3c 9d 36 98 3d 25 01 cf 3d
       -0.061096463 0.026711121 0.07432292 0.1010764
000070 ee 83 26 3e 19 7a 80 3d 2c bf b5 3d e2 65 fb 3d
       0.16261265 0.06273288 0.08874354 0.12275292
000080 49 46 91 bd 97 81 7f 3e a8 c9 08 3e a9 f0 8c 3d
       -0.07093484 0.24951778 0.13358176 0.0688184
000090 44 b1 05 be 17 29 34 3e c0 83 cd 3d f7 48 19 3e
       -0.13055903 0.175938 0.10034895 0.1496924
0000a0 e0 ff 92 bd 36 74 b2 bd b5 43 07 bd 8e ac ad bd
       -0.071777105 -0.08713572 -0.033023555 -0.08480178
0000b0 22 cd 4d be 47 c4 33 be 15 3d 6b 3d 6f c8 90 be
       -0.20097783 -0.17555343 0.0574313 -0.2827792
0000c0 d4 a8 83 be 77 11 3a be 6a e4 a9 3c a1 a1 58 3c
       -0.25714743 -0.18170725 0.0207388 0.013222129
0000d0 75 05 15 be 4c 69 05 3e e2 d3 25 be 25 4d b4 bd
       -0.14552863 0.13028449 -0.16194108 -0.08803777
0000e0 48 be 1e 3e 54 de 54 3e 3a 79 1c be 5d 95 01 bd
       0.15502274 0.20787936 -0.1528062 -0.031636585
0000f0 9a c5 cb 3d 64 57 a9 bd af 0f 7f 3d 82 79 74 3e
       0.09949799 -0.082686216 0.062270816 0.23874477
000100 9e 2c 0c 3e e6 1c 9f bd 74 1b ae bd 4d f4 b2 bd
       0.13688895 -0.07769184 -0.0850133 -0.08738003
000110 69 d8 17 bd 2b a4 4b 3d 35 60 b1 3d 21 e9 4a be
       -0.03707162 0.04971711 0.08660928 -0.19815494
000120 92 d7 11 bd 32 09 40 3d a7 9d 84 3c fd 59 a2 3e
       -0.035605974 0.04688377 0.016188456 0.3170928
000130 32 7a e0 3e 96 ff 42 3f f4 0b 9e 3e 55 f1 b5 3c
       0.43843228 0.76171243 0.30868495 0.022209803
000140 2f fc 37 3f 0b 62 a9 3f c0 55 b9 3f 2c 24 99 3f
       0.71869177 1.3233045 1.4479294 1.1964164
000150 08 23 bc 3e e8 71 6b 3f 3a 13 c1 3f 65 dd ce 3f
       0.36745477 0.9197068 1.5083992 1.6161314
000160 33 41 71 3f 69 98 18 3f bf eb 66 3f 93 50 97 3f
       0.9424011 0.5960756 0.9020347 1.1821464
000170 c3 5f 9a 3f c7 4d 6c 3f 3b d2 08 3f ff c8 27 3f
       1.2060474 0.9230618 0.53445786 0.6554107
000180 34 a1 2c 3f a5 ca 35 3f 67 03 14 3e f5 30 28 be
       0.67433476 0.71012336 0.14454423 -0.16424926
000190 e6 3b 43 3e 30 d3 f2 3d df d7 87 bd 3d 4f 89 3e
       0.19065818 0.11856687 -0.06632971 0.26818267
0001a0 9a 8c ca 3c 24 a1 22 bd df 80 1a be 0b 46 90 bd
       0.024725247 -0.039704457 -0.15088223 -0.0704461
0001b0 49 e8 5e 3e 49 3e bf 3d 0f 99 60 3b b4 45 16 be
       0.21768297 0.09338052 0.0034270918 -0.14675027
0001c0 b9 e1 fe bd 2b b3 8f bc 38 b5 bd bb 89 b0 71 be
       -0.12445397 -0.017541489 -0.005789425 -0.23602499
0001d0 ad 40 1f bd 90 71 b4 bd f7 d1 e0 bd 56 74 87 3d
       -0.03888004 -0.08810723 -0.109775476 0.06613986
0001e0 3a 8d 88 bd 6b 48 cf bd 28 bd c8 bc c3 e5 c6 3d
       -0.06667562 -0.101212345 -0.02450426 0.09711792
0001f0 a7 cf 26 be 73 d6 f9 3c 5a 21 28 3e 33 f4 20 bd
       -0.1629015 0.030497765 0.16418973 -0.039295387
000200 c9 14 ce bd b7 b7 f3 bd aa bc df 3d 12 10 52 3e
       -0.10062558 -0.11900275 0.10924657 0.20513943
000210 0a 2e 08 3e ec 18 26 be 39 e3 10 be 9f f0 6c bd
       0.13298813 -0.16220444 -0.14149179 -0.05784666
000220 ac c0 03 bd 11 6f 68 3e 30 fd 40 3e ca 65 cc bd
       -0.032166168 0.22698618 0.18846583 -0.09980352
000230 ed 40 b3 bc 43 1e b1 bd 62 97 6f 3d ef 0c 90 3c
       -0.021881545 -0.0864835 0.05849398 0.017584292
000240 81 50 f6 bd 01 c6 d8 3d 59 3e 19 3e 34 9e cf bd
       -0.12027074 0.10584641 0.1496519 -0.10137597
000250 eb 56 b5 3d f5 e8 04 be
       0.08854469 -0.12979491

feature.0.bias f4 [6]
000000 86 b0 91 3c f2 7d e5 3c 65 09 c9 bc df a3 50 3e
       0.017784368 0.028014157 -0.024540612 0.20375012
000010 3f 22 e2 3e 65 10 d0 3c
       0.44166753 0.025398443

feature.3.weight f4 [16, 6, 5, 5]
000000 34 d9 d2 3a b5 53 7b bd 1a 26 3a bd c7 1c 04 bc
       0.001608646 -0.061359126 -0.045446493 -0.008063502
000010 cc 54 1b 3d c4 9d 23 3d 01 38 45 3c 77 d2 a4 3d
       0.037922665 0.03994538 0.012037278 0.080479555
000020 26 64 58 3c ff f3 42 3d 40 76 8b 3d 72 ca 24 3d
       0.013207471 0.047595974 0.06809664 0.04023213
000030 db ef 27 3d 4b 8f 15 bb b7 94 7a 3c 2d 47 73 3d
       0.04100023 -0.0022821005 0.015294245 0.05939405
000040 36 b0 f4 3c 81 a8 97 3d 78 b0 14 3d 6d e5 40 3c
       0.02986918 0.074051864 0.036301106 0.011773449
000050 7d b5 bf bc b4 67 b9 bd a5 b5 97 bb 4d d3 95 bd
       -0.02340197 -0.09052983 -0.004629808 -0.07315693
000060 33 da 01 3b 49 50 0f bc f3 65 c4 bd ec 01 9d bd
       0.0019813895 -0.008747169 -0.09589758 -0.07666382
000070 56 f5 6f bd 9f 03 81 bc ce 66 94 bd da 4e d9 bc
       -0.05858358 -0.015748797 -0.07246171 -0.026526857
000080 f8 20 30 3c 43 77 d8 3b 11 34 ce 3b 62 4a 91 bd
       0.010750048 0.006606014 0.006292828 -0.070942655
000090 ca ef 57 bd f3 ce 3a bd 5f 3d 69 bd f2 63 d2 bc
       -0.052718915 -0.04560752 -0.056943294 -0.025682423
0000a0 fe ad 60 3c 39 2d d6 3c af cb ca bb 0d e2 43 3d
       0.013713358 0.02614461 -0.0061888318 0.047823
0000b0 8b 07 8e bc e5 d5 9f 3d 30 65 f2 bc ef e2 7b bc
       -0.017337581 0.07804469 -0.029589266 -0.015373929
0000c0 83 25 42 bb 64 b7 3a 3d 08 d5 5d 3d cf 6f aa 3d
       -0.002962441 0.04558505 0.05415824 0.08322107
0000d0 b8 e6 68 3d 77 d2 7a bd 95 69 1f 3d 12 3a 9e bd
       0.056860656 -0.06123587 0.03891905 -0.0772592
0000e0 75 e7 89 bd 4f 32 16 bc 0a d6 d1 3c 19 f1 2c 3d
       -0.067336 -0.009167268 0.025614757 0.042222116
0000f0 3a 86 8b 3c ad cd bf 3d 26 a9 0f bd 21 3f 51 3c
       0.017031778 0.093654014 -0.035073422 0.012771399
000100 5e 2c 15 3c 64 11 94 3d ca 4d ad bc 51 4e cc 3c
       0.009104816 0.072298795 -0.021155257 0.024939688
000110 84 e2 80 3c 29 30 a4 bc 5b 47 e7 bc 3a 89 90 3d
       0.015733011 -0.020042496 -0.028232267 0.07057424
000120 0b 2a 9e 3d 98 65 c8 3c 6a 06 7e 3d bb 42 bf bd
       0.07722863 0.024462506 0.062017836 -0.093389
000130 79 00 c8 bd d3 13 85 bd 6b 36 7c be c0 3d cd be
       -0.09765715 -0.06497922 -0.24630134 -0.40086174
000140 51 d3 b2 bd 1b 2f 97 3d e9 c1 8d 3d 20 ee 6a be
       -0.08731712 0.073820315 0.06921751 -0.229424
000150 f7 df 1e bf 90 18 5b 3d e6 3b 92 3e 63 45 df 3e
       -0.62060493 0.05349022 0.28561324 0.43607625
000160 64 d7 41 3e 94 a6 02 be 71 cf c1 3d 36 72 a8 3d
       0.18929821 -0.12758857 0.094633944 0.08224909
000170 31 61 c5 3e 59 40 fc 3e b6 9e a2 3e 97 3e 53 be
       0.38550714 0.49267843 0.31761712 -0.20629345
000180 b2 58 7f be 34 4f 03 bd 0b 7a 91 3e 3d f6 32 3e
       -0.24936178 -0.032057956 0.28413424 0.17476745
000190 d8 d2 60 bd 70 41 df 3d 2d 91 7d bc 88 e1 b1 3d
       -0.054888576 0.10901153 -0.015476507 0.08685595
0001a0 79 ee ea 3d af 33 12 bd e9 a8 0a 3a 2e 7b 27 3d
       0.11471266 -0.03569382 0.0005289452 0.040888958
0001b0 68 56 85 bc 18 cc c1 3d d8 3c 16 3d a3 e1 1f 3d
       -0.016276553 0.09462756 0.03667912 0.039033543
0001c0 89 c8 44 3c 4a ab 4d bd 6b c5 06 3b b0 30 b7 3d
       0.012010702 -0.050212182 0.0020564448 0.08944833
0001d0 35 ff 4f 3c f8 e7 64 3d f2 bf 8a bd 4a 83 3c 3d
       0.012695123 0.055885285 -0.06774892 0.046023645
0001e0 4c 5f 82 3d 81 97 b3 3d e0 7c d4 3d 1f 8a fe bc
       0.06365833 0.087691315 0.103753805 -0.03107172
0001f0 cf 91 c5 3c 95 e4 ba 3c 36 b2 8a 3c e3 3a b1 3d
       0.024117379 0.022814075 0.01693068 0.0865381
000200 6c 9f 91 bb 80 75 a5 3c 62 15 71 3b 30 bc 3c 3c
       -0.0044440534 0.02019763 0.0036786427 0.011519477
000210 f1 5d 0e 3d 37 ca 9f 3d 4a f1 af bd 1a 67 73 3d
       0.03475756 0.07802241 -0.08590944 0.059424497
000220 dc 16 3a bd eb 67 69 bd bb f4 33 3c 0a 37 9a bd
       -0.045431957 -0.05698387 0.010983641 -0.07530029
000230 55 f6 0c bc 0e 21 4e bc dc 56 77 3c 82 59 14 bd
       -0.008603652 -0.012581123 0.0150963925 -0.036218174
000240 e3 ba ae 3d 93 0a bb 3c dc f4 05 3d 29 ea 74 bd
       0.085317396 0.02283219 0.03270422 -0.059793625
000250 49 92 dd bc 79 2c 6b bd 3c b1 72 bd 20 2b 65 bc
       -0.027047293 -0.05741546 -0.059251055 -0.013987333
000260 1b 8f 42 3d de 48 91 3c 88 b7 c5 3c 90 9a b0 bd
       0.047499757 0.017734941 0.024135366 -0.086232305
000270 70 dd b0 3c 60 eb 00 be fd 39 19 3d 7d 8d aa bd
       0.021589965 -0.12589788 0.037408818 -0.08327768
000280 f8 66 5e ba 55 34 c1 bc 12 4c eb bc 07 64 c0 bc
       -0.00084839715 -0.023584524 -0.028722797 -0.023485197
000290 af a1 b0 bd 71 85 86 3d 12 8f 85 3c 3f 70 fc bb
       -0.08624589 0.06568421 0.016303573 -0.0077038105
0002a0 5a 11 9f 3d 94 73 1a bd 33 78 56 bc 75 32 7d bd
       0.077669814 -0.03770788 -0.013090181 -0.061815698
0002b0 6d 49 94 3c fb 7c 4c bd 0d 4e 94 3c 20 1a 46 3d
       0.018101418 -0.04992388 0.018103624 0.04836476
0002c0 2a c3 9c 3d 77 ca ea bc 3d f5 a5 bc 7f 61 a4 3d
       0.07654412 -0.028660996 -0.02025854 0.080264084
0002d0 3e 2d 02 3d 52 60 07 3e eb 2e 90 3d ce f9 72 bb
       0.031781428 0.13220337 0.07040199 -0.0037075165
0002e0 3e d4 06 bd 08 f0 51 3d f4 d7 0f bd d2 d0 49 bd
       -0.032917254 0.051254302 -0.03511806 -0.049271412
0002f0 bb ae af 3c 59 f1 71 bd d4 01 28 bd 58 54 9f ba
       0.021445623 -0.059068058 -0.04101737 -0.0012155874
000300 6d 7e 3b 3d 28 b6 50 bc 97 c2 9e bd a1 86 96 3d
       0.045774866 -0.012738742 -0.07751959 0.07349897
000310 64 e5 35 bc d2 22 7b 3d 47 7b 99 3d fa 23 83 3d
       -0.011102054 0.061312504 0.074942164 0.06403346
000320 87 21 6f 3d 6b 46 a1 3c 59 13 b6 3d 4a 1e 6a bd
       0.058381584 0.019686898 0.08890409 -0.057157792
000330 66 80 a1 bd e9 bd 8f 3d d0 bf 65 bc 1f 10 0d bd
       -0.07885818 0.07018644 -0.014022782 -0.034439202
000340 89 53 73 bc ef 9f db bb a5 bf 70 3d 25 7d 61 3c
       -0.014851459 -0.006702415 0.058776516 0.013762747
000350 cc ed 08 bd 40 5c 3c bd f3 84 a4 bd 76 27 54 bd
       -0.033429906 -0.045986414 -0.080331706 -0.051795445
000360 5c 7a 81 3d 77 42 3c bd 7f 7b 48 3d ca 64 77 3d
       0.06322166 -0.045961823 0.0489459 0.060398854
000370 bc de 77 3c 21 1c 8f bb a4 98 63 3d 4b 78 e8 bc
       0.015128788 -0.004367367 0.05556549 -0.028377673
000380 d0 a6 a0 bd 5f b5 8e 3e 0c 00 d9 3e 8d 8b c0 3e
       -0.07844317 0.2787275 0.42382848 0.3760647
000390 7d 51 45 3e 24 83 09 3e 79 e3 7e be ed f5 84 be
       0.19269367 0.13428932 -0.24891461 -0.25968876
0003a0 98 58 28 be 56 1f 69 bd a1 9b 8d 3b 7c 51 02 bf
       -0.16440046 -0.05691465 0.004321531 -0.50905585
0003b0 1b a2 13 bf 7b 12 d1 be 51 7e 82 be a5 d2 21 bd
       -0.5766923 -0.40834412 -0.25486997 -0.039507527
0003c0 41 0c 1b 3e fc 8a 44 3e af 0e f7 3d f2 38 ea 3d
       0.15141393 0.19193643 0.120633475 0.11436643
0003d0 cd 9e 07 bd 92 78 c2 3e 00 19 2f 3e 9b 93 e5 3d
       -0.03311043 0.37982613 0.1709938 0.11209794
0003e0 08 6a ac 3b e0 18 83 bd 62 19 6b bd c2 da 91 bd
       0.0052616633 -0.06401229 -0.057397254 -0.07121803
0003f0 7c 74 65 bd 20 d1 37 bd 6c d1 89 bb a4 de ed 3d
       -0.05601929 -0.04487717 -0.0042058732 0.11614731

feature.3.bias f4 [16]
000000 97 12 03 3e 6c a1 ce bb d0 5b bb 3d 77 49 40 3d
       0.1280006 -0.006305864 0.09148371 0.04694506
000010 81 13 06 bd 6d a1 b9 3d fa 94 15 3d 3e d6 b1 3c
       -0.032733444 0.09063993 0.03651903 0.021708604
000020 ec f9 40 bc a5 cd 80 3c 5e 68 1b bc 58 83 37 bc
       -0.011778336 0.015723059 -0.009485332 -0.011200748
000030 51 f4 ab 3d be 50 25 3d 63 1f 08 3e 4c 53 90 bd
       0.08396209 0.040360205 0.13293223 -0.070471376

classification.1.weight f4 [120, 400]
000000 65 f3 16 bd 87 ae b0 bd 41 ff 23 bd b9 74 3a bc
       -0.036853213 -0.086270384 -0.04003835 -0.011380368
000010 69 84 32 3d e1 fb 3d bc 9d 7a 29 bc 32 62 58 3d
       0.043583307 -0.011595697 -0.010344175 0.05282802
000020 e1 f3 2e 3c be 43 d7 bc 1c de c2 3a 7f f2 67 3d
       0.010678262 -0.02627742 0.0014867219 0.056627747
000030 03 34 3f 3c 15 51 ab 3d 32 0f af bc 22 2b 1e 3d
       0.011670115 0.083650745 -0.02136955 0.038615353
000040 28 28 1e 3d 99 e2 cf bc 16 28 aa bd c5 c1 8a bd
       0.038612515 -0.025376605 -0.08308427 -0.0677524
000050 e0 22 82 3d 25 84 59 3d b6 b4 cc bc 5b 12 c2 bd
       0.06354308 0.05310454 -0.024988513 -0.09476157
000060 c4 4f 96 bd 94 93 af bc 7e 1f 0a bd 3e 9a 98 ba
       -0.07339433 -0.021432675 -0.03372144 -0.0011642647
000070 49 c3 59 3c db c2 d9 3c 1a b1 cb bc 5b 1b 01 3d
       0.0132911885 0.026582172 -0.024864722 0.03152023
000080 cf 5d a7 bc 65 08 5d 3c ca 6e e3 3d 3f b3 80 3c
       -0.020430474 0.013490771 0.11105116 0.015710471
000090 98 9c 33 3d a7 e7 0d 3d 35 de 34 bd 20 2e 61 3c
       0.04385051 0.03464475 -0.044157226 0.013743907
0000a0 4f 29 6d 3c fd 56 e1 ba 0c fe 55 3c 0a 63 84 bd
       0.014475181 -0.0017192062 0.013061058 -0.06464203
0000b0 0b df 12 bd a7 43 3c 3d ea c5 91 3c 34 e3 31 3d
       -0.03585724 0.045962956 0.017794568 0.04342957
0000c0 45 eb 48 bd 0a 1c 9a 3a 05 14 b1 bd c6 a4 a0 bd
       -0.049052496 0.0011757624 -0.086463965 -0.07843928
0000d0 93 f7 0c 3c 5c 53 9a bc fb 38 62 3d d6 26 65 3c
       0.008603948 -0.018838577 0.055230122 0.01398631
0000e0 c1 10 1e 3d c7 4f 0b 3d 57 31 27 bb 11 9e c4 bc
       0.038590197 0.03401163 -0.0025511587 -0.024001153
0000f0 55 eb 47 bc f8 e3 33 bd d0 cf 0b bd 21 57 84 bc
       -0.012202104 -0.04391858 -0.034133732 -0.016154828
000100 41 9d 6c bd 56 ef 8a bc 8c 42 73 3d 11 9a df 3c
       -0.057767157 -0.016959827 0.059389636 0.027295144
000110 69 34 cf bd 42 4c a2 bd 5e f8 3d bd 80 f5 1c bc
       -0.10117418 -0.07924701 -0.04637944 -0.009580016
000120 a1 31 68 bd 9b a4 ed 3b d3 d5 b6 bc 22 17 5f bd
       -0.056687955 0.0072522885 -0.022318756 -0.05446542
000130 0a d2 b8 3c 94 40 4e 3c eb 8e 73 bc 07 c4 2e bd
       0.022561092 0.012588639 -0.014865617 -0.042667415
000140 86 6d e5 bc 5a e3 67 bc d7 c7 2c bd 23 10 11 bc
       -0.028006326 -0.014153326 -0.04218277 -0.008853945
000150 e3 79 36 bd 25 b4 ee bc ff d4 15 bd 21 97 bf bc
       -0.044549834 -0.029138634 -0.036580082 -0.023387494
000160 a3 f5 27 bc f8 9d 2a 3d 3c cf 0f bc 45 43 70 bd
       -0.010251435 0.041654557 -0.008777436 -0.058657903
000170 07 6b a3 bc f3 2f 03 3d f6 12 f5 3c 1f da b7 bc
       -0.019948496 0.03202815 0.029916268 -0.022442875
000180 b5 f2 29 bd f1 cb 4a bb 08 3f b7 3c 3a cc 8a 3d
       -0.04149123 -0.0030944312 0.022368923 0.067772344
000190 6a ed 12 3c a4 84 09 3d c3 53 1f bd 4a 9f 0c bc
       0.008967737 0.03357376 -0.03889824 -0.008582899
0001a0 e5 f7 90 bd 74 e1 e4 3b ef 51 97 bd ee cf c7 bd
       -0.07078532 0.006984884 -0.073886745 -0.09756456
0001b0 17 1b 0f 3d 1c b0 b6 bc 76 74 85 3d 5f a0 84 3d
       0.034937944 -0.022300772 0.06516354 0.06475901
0001c0 60 1e 1a bc 3c 2e 7a 3d 05 40 36 3d 18 73 38 3d
       -0.009406656 0.06107925 0.044494648 0.045031637
0001d0 11 d2 0c 3d 28 67 97 bb 82 16 87 3d ae 99 de 3b
       0.034380022 -0.0046204515 0.0659609 0.0067932224
0001e0 6b db 7d bb 5c 8c 25 bd 4b db 9d 3c 56 f6 37 3d
       -0.003873552 -0.04041706 0.019269606 0.04491266
0001f0 52 ff c6 bc 4d c8 73 3d 40 c2 f2 3b df 7f ca bc
       -0.024291668 0.059517194 0.0074084103 -0.024719177
000200 79 ba 5e bb 85 f4 41 3b 56 87 ca bc b2 6a 3c bd
       -0.0033985658 0.0029595208 -0.024722736 -0.04600019
000210 d6 d7 94 bd de d2 0e 3b 26 61 69 bc 75 46 7c 3d
       -0.0726773 0.0021793167 -0.014244353 0.06159063
000220 89 34 cd 39 22 6f c9 bc 57 c4 69 3d 67 1d 60 3d
       0.0003913979 -0.024589125 0.05707201 0.05471554
000230 24 1c f0 3c b4 90 15 3d ef 32 08 3d 3d 66 cf 3d
       0.029310293 0.036514953 0.0332517 0.10126922
000240 20 0e e4 3d 42 fd e4 3c 0c d7 a4 bd 39 73 90 bd
       0.11135507 0.027952794 -0.080488294 -0.07053227
000250 f5 4e 26 3d cd 5c 5b 3d 1f 2a e9 bc 26 8e f0 3b
       0.040602643 0.0535553 -0.028462468 0.007341164
000260 22 b7 29 bd 45 d6 cf 3c 08 6a 45 bd 62 bb 8d 3c
       -0.041434415 0.025370726 -0.048196822 0.017301265
000270 72 d5 5d bd 35 62 12 bd f2 28 e9 bc e2 c5 44 bd
       -0.054158635 -0.03573819 -0.028461907 -0.04804028
000280 a2 bc 1e bb 11 ab 1b bd b5 50 06 bc fb 53 7e bc
       -0.002422132 -0.03800494 -0.008197953 -0.015522952
000290 03 67 18 3c ea 1a 7e 3c 09 bc 3c bd 1c 3e 29 bd
       0.009301904 0.0155093465 -0.04607776 -0.041318998
0002a0 c7 8d e3 3c e6 8b ab bb db 43 b1 bc e8 89 ff bb
       0.027777566 -0.005235183 -0.021638801 -0.007798422
0002b0 cf d6 0b bd 68 d7 21 3b d8 03 bd 3b 00 7b 86 3b
       -0.034140404 0.0024695043 0.0057682805 0.004104018
0002c0 d9 7f 95 3c 7f 81 5d 3c 62 f3 1f 3d 3e bb e3 3c
       0.01824944 0.013519644 0.039050467 0.027799245
0002d0 fe e9 e5 bc ca 38 90 3b c8 9e 13 3d 19 7d 3c bd
       -0.028065678 0.004401301 0.036040097 -0.04601774
0002e0 26 22 63 bb 11 1f 26 3d fa 54 94 3c 16 b0 4c 3d
       -0.0034657805 0.04055697 0.018106926 0.049972616
0002f0 ec 50 93 bc f5 ab 66 3c 22 c9 7a 3c 29 98 6b ba
       -0.017982922 0.014079084 0.015306743 -0.0008987212
000300 3b 5a 33 3d 4f 61 0f 3c 8e 7e 3e 3d 9d 7c 36 3d
       0.043787222 0.0087512275 0.04650741 0.044552434
000310 e1 76 81 3c 07 15 1e bd 59 39 b5 bc 6e 3c 26 ba
       0.015803756 -0.038594272 -0.022122072 -0.0006341402
000320 e6 d4 8a bd 20 a9 07 bd e6 91 16 bd 2c a4 e2 3c
       -0.067788884 -0.033120275 -0.036760233 0.027666174
000330 fa 7f 2c 3d 24 ee 82 bd 2a 8b 10 be 1b ae 9e bb
       0.042114235 -0.06393078 -0.14115587 -0.0048425323
000340 d3 97 29 3d 76 9c df 3d e6 28 9d bb b8 54 b4 bd
       0.041404556 0.109185144 -0.0047961352 -0.08805221
000350 7b 61 5f 3d 10 2d 17 3d 36 7d a3 bd a1 2c 8e 3c
       0.054536324 0.03690821 -0.079828665 0.017355265
000360 5f b8 a1 bc 08 4e 6e bb 5f 11 50 bc f0 6e 83 bd
       -0.019741235 -0.0036362428 -0.012699454 -0.06417644
000370 bf 68 a0 3d 24 6e 08 3e 83 b9 b3 3d 62 4e d8 bd
       0.07832479 0.13323265 0.08775618 -0.10561825
000380 1b 48 04 be e3 cb 0a 3d 1a ea e1 bc 0b 6e 53 3d
       -0.12918131 0.033885848 -0.027577449 0.051618617
000390 26 3b 9e ba 63 0e 32 bb ea 25 86 ba ec 51 81 bc
       -0.0012072071 -0.002716922 -0.0010234688 -0.015786134
0003a0 b9 cd f6 bc c1 c2 89 3c a5 9e d5 3d 58 b3 9f 3d
       -0.030127393 0.016816499 0.1043065 0.07797879
0003b0 59 bb 6c 3b 13 78 ab bd 62 95 20 bd 5e 70 ca bc
       0.003612241 -0.08372512 -0.039204963 -0.024711784
0003c0 61 e9 a8 3c 6a fb f4 3c 4c a2 71 bd 78 fb 3e bd
       0.020619096 0.02990504 -0.05899267 -0.046626538
0003d0 76 aa d6 3c c8 38 c4 3d 7f 45 0d 3e 5f 2c 44 3c
       0.026204329 0.09581143 0.13796042 0.0119734695
0003e0 72 29 1e 3d a9 5e b8 3c 7f 7c 22 bd 93 e4 a3 bd
       0.038613744 0.022506075 -0.03966951 -0.080025814
0003f0 3c d9 a6 3d 18 fe 8d bc fb 14 83 3b 07 b5 5d bd
       0.08146903 -0.017333075 0.004000304 -0.05412772

classification.1.bias f4 [120]
000000 c3 cb 0e bc fc fa 1f bd 65 5c b0 ba e8 22 04 bd
       -0.008715573 -0.039057717 -0.001345527 -0.03225985
000010 70 e5 43 bd e4 05 7a 3d 0a 15 49 3d d8 76 5c bc
       -0.04782623 0.061040774 0.04909233 -0.013456069
000020 58 9f b3 3d d9 77 08 bb 8a 3b 24 3d 67 ed c7 3c
       0.08770627 -0.0020823388 0.040095843 0.024405194
000030 ec 46 17 3d 6d 00 21 bd 0e d6 f6 bc 54 60 c5 bc
       0.03693287 -0.039307047 -0.030131366 -0.024093784
000040 b0 d9 ad 3c 74 06 3a 3c 79 94 67 bb 48 83 27 bb
       0.021221966 0.011354078 -0.00353363 -0.0025560427
000050 53 32 25 3b cd 6c bc 3b 22 b3 b7 3c 1c 9c 06 3d
       0.0025206998 0.0057502748 0.022424284 0.03286372
000060 4f 18 7b 3c d3 6b f9 bc 60 5b 9d 3c f9 7d 49 3d
       0.01532562 -0.030446922 0.01920861 0.049192403
000070 c0 42 99 3d 54 c0 9c bb 67 93 69 3d be 67 10 3d
       0.07483435 -0.0047836695 0.05702534 0.035255186
000080 51 2a dd bb 79 04 f6 bc fc 34 2a 3d a0 67 d2 3c
       -0.0067494293 -0.03003143 0.041554436 0.025684178
000090 fa d0 aa bc 7c 97 ba ba 46 e7 53 3d a3 5f 54 bc
       -0.0208516 -0.001423582 0.05173423 -0.012962255
0000a0 94 36 45 bc 48 21 15 bd 0a 49 c3 3c 9d 2f 23 3d
       -0.012036938 -0.036408693 0.023838539 0.03984033
0000b0 dc 8e 44 3d 46 8c 48 bd d9 14 88 3c 23 10 3c 3d
       0.047987804 -0.0489619 0.016611503 0.045913827
0000c0 29 c2 fb 3b cb d9 9c 3a e7 7a 5c 3d 9c 54 bf bc
       0.007683058 0.0011966763 0.053828146 -0.023355775
0000d0 aa 98 f0 3b da 73 ce 3c 17 73 04 bd 19 0d 3a bc
       0.0073424177 0.025201727 -0.03233632 -0.011355662
0000e0 3e c5 35 bb c3 b3 d9 3c 24 05 46 3d c9 20 0a 3d
       -0.0027735974 0.026574975 0.048344746 0.033722673
0000f0 65 27 01 3d 3e fd 3f 3d 25 fb 36 3d 83 af 57 bc
       0.03153171 0.04687237 0.044673104 -0.013164404
000100 b5 5a 04 3d 58 d6 a0 bc 57 85 d1 bc ef 7a cd 3c
       0.032313067 -0.019633457 -0.025576277 0.025083033
000110 d0 f4 47 bd 5b fe 4b 3d 5c d5 c8 bc ca 4d e6 ba
       -0.048817456 0.04980312 -0.0245158 -0.001757079
000120 01 f1 b8 3c f2 bb b7 bc 62 4f 58 3d 68 02 99 bc
       0.022575857 -0.022428486 0.05281008 -0.018677905
000130 17 ab 04 bd 0c ad ca bc 53 4b 38 3d 86 fd dd bc
       -0.032389726 -0.024740718 0.04499371 -0.027098428
000140 13 68 a0 3c cd 91 4d 3d e1 5e 9e 3c 8d da 5f 3d
       0.019580876 0.050187875 0.019332351 0.054651786
000150 fb 28 b7 3c 56 d8 3e bd 42 eb b9 bc 10 1a 0f bd
       0.022358408 -0.046593033 -0.022695187 -0.034936965
000160 d9 f1 95 bc 05 b1 9f 3c 37 f0 17 bd 90 3a 4f bd
       -0.018303799 0.01949359 -0.03709432 -0.05059296
000170 d2 6e 2e bd 67 80 03 bd ec 3b c1 3b ae 4b 05 bd
       -0.042586155 -0.032104876 0.005897036 -0.032542877
000180 9f 34 fb 3c 9f 0d b1 3b 3e 76 ef bc a5 f2 36 bc
       0.03066474 0.005403235 -0.029231187 -0.011166249
000190 64 36 66 3b 06 45 83 3c 65 96 af 3c 55 ea 52 3d
       0.0035127634 0.016024124 0.021434018 0.051493008
0001a0 84 39 59 3c 7d 78 8d bc 98 b1 b5 bc b8 97 de bc
       0.013258342 -0.017269367 -0.02217941 -0.027171955
0001b0 d9 08 04 bd 81 9e c5 bc 0c a0 b0 3c 29 74 73 bd
       -0.032235 -0.024123432 0.021560691 -0.05943695
0001c0 ff cb 23 3c f1 67 1c bd 80 30 9e bc 2b fc c4 bc
       0.009997367 -0.038185064 -0.019310236 -0.024046024
0001d0 f6 84 db bc 2b c3 5f 3c b9 13 8e 3d 71 e6 11 3a
       -0.0267968 0.0136573715 0.069373555 0.00055656495

classification.3.weight f4 [84, 120]
000000 74 a3 2b bd f2 c9 d3 bc 91 00 a9 bd 2d 35 ec 3d
       -0.041903928 -0.025853131 -0.08252061 0.1153358
000010 7d 02 ab bd ba 89 68 bd 95 0c 82 3c ab c7 75 3c
       -0.08350084 -0.05677197 0.01587514 0.015001218
000020 cc 28 19 3d 2b 19 11 3e 85 04 86 3d 31 c5 a4 bd
       0.037392423 0.14169757 0.06543831 -0.08045424
000030 2c a2 88 3d e9 11 da 3c 6f 99 c4 3c fa 61 e4 bc
       0.06671557 0.026619868 0.023998944 -0.02787875
000040 d2 4f 18 bc a2 e3 87 3c 3a 8d 98 bd a4 40 11 3d
       -0.009296374 0.016588036 -0.07448812 0.035462037
000050 47 d7 0e 3d 9b cb b7 bd c1 df 1c 3c 1c e0 32 3c
       0.034873273 -0.089743815 0.009574831 0.01091769
000060 1d 4a f2 bd f3 5b ae 3c e2 2f 56 bd d1 df cd bd
       -0.11830542 0.02128408 -0.05229176 -0.10052455
000070 63 04 a6 bc 3f 86 d8 bc c3 37 15 bc 19 da 93 3d
       -0.020265764 -0.026431201 -0.009107533 0.07219333
000080 21 22 53 bd c6 a5 29 bd 90 1b 8e bd f4 24 0b 3d
       -0.05154622 -0.04141786 -0.06938851 0.033970788
000090 23 d8 87 bd 52 e9 a5 bd 56 0f 48 bd 3f fa 02 3e
       -0.06633022 -0.08101143 -0.04884275 0.12790774
0000a0 4b 29 16 bd 70 c9 af 3c 9a eb 17 3a 6c 11 98 bc
       -0.036660474 0.021458358 0.00057953 -0.018562995
0000b0 15 43 0d bd b2 58 c0 3d d2 d5 38 3d 3d 5e ce bd
       -0.034487803 0.09391917 0.04512579 -0.10076568
0000c0 fa 97 2c bd 52 a5 aa 3c c1 0d 11 3d ce a9 32 3c
       -0.042137124 0.020830784 0.035413507 0.010904742
0000d0 b7 92 24 bb c5 2b c5 3d 1e 6a 28 3c 5d ad 84 3c
       -0.0025111863 0.09627489 0.010279207 0.016195947
0000e0 99 97 d9 3c ff 51 7c bd 0b 39 e6 3d 3b c5 98 3d
       0.026561545 -0.061601635 0.11241349 0.07459494
0000f0 5f ed cd bd da 60 7a bd 7b fe b6 bd 31 46 4f bd
       -0.100550406 -0.06112752 -0.08935257 -0.05060405
000100 ad 62 5a bd 1a b6 70 bd fa df 2d 3c 22 e2 e0 3d
       -0.05331676 -0.058767416 0.010612482 0.109806314
000110 50 c3 04 3d 9f 53 4f bd 34 8a 2f 3d e0 b4 d8 bc
       0.032412827 -0.050616857 0.04285641 -0.026453435
000120 a9 89 56 3c 38 38 b5 bc 63 3d a7 3b 7e ba 08 3e
       0.013094344 -0.022121534 0.0051037534 0.13352391
000130 18 17 76 3d 11 06 8d 3c 14 03 a5 bd 15 8e a3 bc
       0.060080618 0.017214807 -0.08057228 -0.01996521
000140 22 46 18 bd 05 bf 1b bd f8 58 8a bc 44 40 9b bc
       -0.03717626 -0.038023967 -0.016888127 -0.018951543
000150 2b c2 8e bd d9 56 ed 3d fb 27 96 bd 2a 6a 2a bd
       -0.06970628 0.115888305 -0.073318444 -0.041605152
000160 bb f4 a5 3d f6 bf 6d bc 2d 24 db bd 1f b3 d3 3d
       0.08103319 -0.014511099 -0.10700259 0.10336899
000170 98 a5 48 bd 29 bb fd 3c 79 f9 40 bc 1b ed b0 3d
       -0.048986048 0.030973034 -0.011778229 0.08638974
000180 41 a5 6f bd 90 3b 27 3d e3 b3 72 bd 97 35 59 3c
       -0.058507208 0.040828288 -0.059253585 0.013257406
000190 0d 56 7a 3d 36 19 aa bd 4a bc dc bc 14 bd 86 bd
       0.06111722 -0.0830559 -0.026945252 -0.065790325
0001a0 fe 8b 71 bd 06 7b 81 3d b1 c9 92 bd b8 96 b0 3b
       -0.058971398 0.06322293 -0.07167376 0.005389061
0001b0 a7 d0 5c 3d 9a 7e 0d 3d b7 1f c4 3c 1d e0 c6 3d
       0.053909924 0.034544565 0.023940904 0.09710715
0001c0 c4 ab 72 3c 91 70 bd bd af 8f cf bc f3 b9 bb bd
       0.01481146 -0.09249986 -0.025337068 -0.091663264
0001d0 e6 5f 20 3d 4c aa 11 bd 12 0d 06 3b 52 2e 03 3d
       0.039153956 -0.0355628 0.0020454568 0.032026596
0001e0 b0 a2 67 3d 52 d9 30 3d db 75 c7 3d e5 e4 e2 bd
       0.056551635 0.043176003 0.09739276 -0.110788144
0001f0 f6 dd bd 3d 5d e1 34 3d df a7 5b bd 24 1b 71 bd
       0.09270851 0.044160236 -0.05362689 -0.058863774
000200 31 6f 82 3d 20 1e 24 3d 06 98 a7 3d 0d 96 2f bd
       0.06368864 0.040067792 0.08183293 -0.04286771
000210 32 29 8f 3d 38 06 a8 3d b7 e3 73 bd 56 46 9f bd
       0.06990279 0.08204311 -0.059543338 -0.077770874
000220 99 da 28 bd 23 52 13 3d 04 03 8b 3c e4 09 73 3d
       -0.041224096 0.035967004 0.016969211 0.059335604
000230 8c 54 06 3e da 0d 7a 3d 6d 79 d3 3c 88 21 05 3d
       0.1311819 0.061048366 0.025814736 0.03250268
000240 94 59 bf 3d ca fe 94 3d b6 1b 1f 3d 43 0f 0c 3d
       0.093432575 0.0727516 0.038844787 0.034194242
000250 54 9e 11 3e 70 a5 14 be bf 45 a7 bc 3f fa dc 3c
       0.14220554 -0.14516234 -0.020419 0.026974795
000260 bf f3 b7 bd ec 37 95 bc 57 d3 a4 bc b7 5b 83 3c
       -0.08982038 -0.018215142 -0.020120306 0.016034944
000270 cb 7e 55 bd 4d a3 8a 3d 64 63 0e 3c ea f4 1d bd
       -0.052122872 0.067694284 0.008690689 -0.038563646
000280 cd 72 84 bd ba 60 0e 3d bc e4 74 3a f0 39 41 3e
       -0.06467209 0.034760214 0.00093419454 0.18869758
000290 d3 14 2d 3d 3a fb 73 bd 7a 77 1b be 65 16 9a 3d
       0.042256188 -0.05956576 -0.15182295 0.07523803
0002a0 4e 40 4f bc 30 2b 5d bd 22 47 c9 bc 37 55 bd 3b
       -0.012649609 -0.053996265 -0.024570052 0.0057779807
0002b0 54 f2 55 bd 90 53 d4 3d 25 69 12 bd 6f e2 01 3e
       -0.052233055 0.10367501 -0.035744805 0.12684034
0002c0 7d 9e 63 bd f2 82 51 3e 61 e6 48 3d 0a cf 6e bd
       -0.055571068 0.20460108 0.04904783 -0.058302917
0002d0 7b e3 db 3d 68 65 89 bc 42 9c 19 bc 9e a0 ed bd
       0.10736748 -0.016771987 -0.009375634 -0.11602901
0002e0 88 a3 ad 3d aa 00 4c bd ec 5f 3b bb 3d 91 86 3d
       0.08478457 -0.04980532 -0.002859111 0.06570671
0002f0 f7 4b 82 bc 75 92 0d bd a0 6e 9e bd 68 a4 a2 3d
       -0.015905363 -0.0345635 -0.07735944 0.07941514
000300 d6 c8 18 3e 9c 73 e1 bd ce 43 83 3c 53 90 90 3d
       0.14920363 -0.11008379 0.016023543 0.07058778
000310 81 0c ca bd ed cc 39 3d 07 e7 92 3d 8f 58 f0 3d
       -0.09865666 0.045361448 0.07172971 0.11735641
000320 d4 cc 87 bd 24 15 08 3d 07 7e 61 bd 54 03 84 3d
       -0.06630865 0.033223286 -0.05505183 0.06445947
000330 a8 51 24 bd 1f 98 21 3d 87 53 23 3e c9 15 8f 3d
       -0.040116936 0.039451715 0.15949832 0.06986577
000340 63 2e c3 3d df c9 91 3d f2 2b b1 3d eb 09 ac bd
       0.09530332 0.07118582 0.0865096 -0.08400329
000350 9b 88 71 3d cc 97 8e bc 46 90 0c bd 51 ca 7d bd
       0.058968168 -0.017406367 -0.034317277 -0.061960522
000360 22 9a 67 3d ba 23 b3 bd 5d 55 42 3d cd c1 2a 3e
       0.056543477 -0.08747049 0.04744469 0.16675492
000370 d4 04 03 3e 05 3b 31 bd 83 cb 6a 3d 05 cd 72 3c
       0.1279481 -0.043269176 0.05732299 0.014819388
000380 b0 2c f7 bc 18 17 04 bd fd 60 97 bd b9 5f 8a bb
       -0.030172676 -0.032248586 -0.07391546 -0.004222837
000390 5d 62 ba 3c 34 1c a0 bd ef ac fc bd c3 08 71 bd
       0.022751981 -0.07817879 -0.12337672 -0.058846246
0003a0 a2 73 84 3d 29 f3 45 3e 01 31 a6 3d d3 82 9f 3b
       0.06467368 0.1933104 0.081148155 0.0048678904
0003b0 f9 98 50 bd b8 9e c9 3d 07 51 2f bd fb 40 9b bc
       -0.050927136 0.09844726 -0.042801883 -0.018951884
0003c0 63 72 22 3e 34 3e bc 3d 1f d4 85 bd f8 0f 8b bb
       0.15863948 0.09191552 -0.065345995 -0.004243847
0003d0 a3 95 97 3c e3 b6 88 bd db 7b 08 3a bf c4 36 3e
       0.01850397 -0.06675508 0.0005206444 0.1784849
0003e0 f0 22 53 3d e1 b9 dc 3d f5 7a 9c bd 7a 32 29 be
       0.05154699 0.10777641 -0.0764064 -0.16523162
0003f0 7f 1d 90 3d 62 1e 93 bd 2f 07 85 bd 15 ba 86 bd
       0.07036876 -0.071835294 -0.06495511 -0.06578461

classification.3.bias f4 [84]
000000 59 0b 9d bd e2 f6 c6 3d e7 37 05 3e 31 70 8e bd
       -0.0766818 0.09715058 0.13009606 -0.069549926
000010 cd 9b f7 bc ce 6f 6c bd 58 dc 1a bc 9e df 0f 3d
       -0.030225659 -0.057723813 -0.009451948 0.035125367
000020 1c 65 e6 3d e9 98 c9 3d 1a ac 97 3d 63 1e bd 3d
       0.11249754 0.098436184 0.07405873 0.092343114
000030 1a b4 a8 3d b8 65 55 3c 2b e5 0b bd d5 f0 a6 3d
       0.08237477 0.01302474 -0.0341541 0.08151404
000040 ee fe d9 bc cc 0a f1 3b 8f a6 7d bd 89 4a b2 bd
       -0.026610818 0.0073560234 -0.06192642 -0.08705623
000050 d1 cf 25 bd 37 73 43 3c 75 6f b0 3b 87 ba aa bc
       -0.040481392 0.011929325 0.0053843805 -0.020840896
000060 35 06 d4 3c 88 24 bf bc b6 3d c6 3c 86 f1 05 3d
       0.025881866 -0.02333285 0.024199348 0.032701038
000070 37 48 98 bd 68 be 89 3c 07 df c0 bd 7e a1 c5 bc
       -0.07435649 0.016814426 -0.09417539 -0.024124857
000080 fc fe 82 3d 71 48 87 bd b4 7c 8e bd dd 15 97 bd
       0.06396291 -0.06605614 -0.06957379 -0.07377217
000090 a6 76 92 3c 32 2e 8d 3c ff 94 d5 bc d2 84 4d 3d
       0.017878842 0.017233942 -0.026072023 0.050175495
0000a0 96 b6 0e bc 2a df d6 3c c9 83 8e 3d 09 d6 dd 3d
       -0.008710524 0.02622946 0.0695873 0.108318396
0000b0 69 03 de 3d cb 1b 73 3c 77 1a 9d 3d 60 89 fa 3d
       0.10840494 0.014838169 0.076710634 0.122332335
0000c0 6c ea d7 3c cc 2f 04 3d 31 7c 3f bd 59 2c 8d bd
       0.026356898 0.032272145 -0.046749298 -0.06893224
0000d0 ae e3 4c 3c 73 96 73 ba a1 4b a6 3d 47 33 c7 3d
       0.012505455 -0.0009292133 0.08119894 0.09726577
0000e0 ea f3 67 3c b0 78 69 3d 3e e6 29 bd db 61 45 bd
       0.014157275 0.056999862 -0.04147934 -0.048189025
0000f0 18 04 f9 bc e2 d2 a3 3d 75 54 48 3c 42 43 d7 3d
       -0.03039746 0.07999207 0.012227167 0.10510875
000100 26 cb 59 3c 9f db a7 bc bb 4f 69 bd bf 06 5b bd
       0.013293063 -0.020490466 -0.056960803 -0.05347323
000110 65 6e 8d bd 94 ba 04 3d d1 8f bb 3d b3 62 15 3c
       -0.06905822 0.032404497 0.0915829 0.00911777
000120 4b 8e 1b 3d ab 94 89 bc b3 2d 5c 3c 13 2c a2 bd
       0.037977498 -0.016794523 0.01343863 -0.07918563
000130 e6 73 25 bd 28 4c 9e bd c6 aa 5b 3d 1e 6d 20 3d
       -0.040393732 -0.077293694 0.05362966 0.039166562
000140 7b 80 8c bd c0 76 67 bd 98 c8 0c 3e 37 a6 4f 3c
       -0.06860443 -0.056509733 0.13748395 0.012673906

classification.5.weight f4 [10, 84]
000000 b7 f6 83 3d cd 87 4b 3c 0d 28 95 be 2e 5c d8 bd
       0.064435415 0.012422514 -0.2913212 -0.10564457
000010 c3 3c ba 3c 41 55 10 3e cf 63 9e 3e 8d ba 61 be
       0.022734052 0.14095022 0.30935523 -0.2204382
000020 c0 28 60 be 1c fa 11 3e 48 fe 15 3c 42 04 e1 3d
       -0.21890545 0.14255565 0.009154864 0.1098714
000030 f3 e3 a9 3d 44 bd 2a 3e bf 6e 40 3e d0 5f a4 bd
       0.08295431 0.16673762 0.18792246 -0.08026087
000040 a3 8a ca 3d 0c e9 13 bd 91 39 12 3e c9 61 90 bd
       0.09889724 -0.036110923 0.14279772 -0.07049901
000050 8e e3 79 3c 8b 6d 8a bd 3b 81 12 3c a1 d9 06 bd
       0.015252007 -0.06759175 0.008941944 -0.03292239
000060 c8 b6 d9 bd 8b 8e a3 3d 9d ec 98 be 57 1f 6b bd
       -0.10630566 0.07986172 -0.29868022 -0.057402935
000070 b1 24 fd bd 45 a0 bf bb ae 5e be 3e 8d 35 7b 3d
       -0.12360514 -0.005847963 0.3718161 0.061330367
000080 dd 09 62 be 40 1c 50 3e 33 97 bf 3d 41 e2 34 be
       -0.22074075 0.20323277 0.09355011 -0.17664434
000090 3e c2 b9 3e da 87 3e 3e 5f cc 09 3d c8 ba f9 3a
       0.36281008 0.18606511 0.03364217 0.0019052858
0000a0 73 9d 3b be f6 2f 18 3d 13 ec 81 be 7c 96 3e be
       -0.18321781 0.037155114 -0.25375423 -0.18612093
0000b0 e7 54 54 be 7e 74 a2 3d 9d 92 e0 bd 7f e7 ac be
       -0.20735513 0.07932375 -0.10965464 -0.33770368
0000c0 62 d7 c2 bd 8f b7 97 bc 49 28 37 3e dc cd 94 be
       -0.09513737 -0.018520145 0.17886461 -0.29063308
0000d0 f8 fd a0 bd fd 96 0e be 44 20 70 be de eb 03 3e
       -0.07860941 -0.13924785 -0.23449808 0.12882945
0000e0 f4 a5 64 be 85 71 68 be ef 7c e4 3d ac 8c 1c 3e
       -0.22328931 -0.22699554 0.11156642 0.15288037
0000f0 14 bf d2 3d 71 c5 90 be fc c7 8a be 4e 97 e5 3c
       0.102903515 -0.28275636 -0.271057 0.02802625
000100 b1 22 9a 3d 0e d7 40 3d cc 11 49 bd 01 78 3b 3e
       0.07526148 0.047080092 -0.049089238 0.18307497
000110 e2 ae a8 3d de 3a 51 be 5e 1e 03 be a1 9a 4e 3e
       0.08236481 -0.20432612 -0.12804553 0.20176174
000120 21 24 75 be 3e 4b 3b bd 78 31 d7 bc 6c 40 54 3d
       -0.23939563 -0.045726053 -0.026268706 0.05181925
000130 28 e7 d8 bd 3c 96 8a bd 5d 25 5e 3d 93 be 18 3e
       -0.105909646 -0.06766936 0.05423485 0.14916448
000140 67 b3 0e 3e c7 16 54 be 07 08 07 bd ac 3d b0 bd
       0.13935624 -0.20711814 -0.03296664 -0.08605513
000150 18 3f 6e 3e a7 0f d5 3d 61 b7 d3 3d 14 12 40 3d
       0.23266256 0.10403376 0.10337711 0.04689224
000160 e3 1f 05 be c9 b4 1a bd 90 4f 71 be 1e ee a2 3c
       -0.13000445 -0.037770066 -0.23565507 0.019888934
000170 53 86 73 bd 15 25 e5 3d f6 a4 5b be 91 4f 97 be
       -0.059454273 0.111887135 -0.21449646 -0.29552892
000180 e6 8d 97 3e dd 69 82 be c8 b6 10 3e fa d3 94 bc
       0.29600447 -0.25471392 0.14132226 -0.018167485
000190 3e d7 f2 3d 5c 0d 63 3e 59 9c ff 3d 66 46 ed 3d
       0.118574604 0.22173065 0.12480993 0.11585693
0001a0 e9 b2 96 be 8c 30 0c be a2 e7 67 be ba df 44 3d
       -0.29433373 -0.13690394 -0.22646955 0.048064925
0001b0 4f c2 11 be aa 38 70 be b8 dd 43 bc 92 e8 82 3e
       -0.14234279 -0.23459116 -0.011954717 0.25568062
0001c0 1c 16 53 3d b4 50 c4 3b 68 34 51 3e 1d b4 3b 3e
       0.051534757 0.005991066 0.20430148 0.18330427
0001d0 23 0d e1 3c fc 5f 45 be 64 67 de bd 2c 09 05 be
       0.027472084 -0.19274896 -0.10859564 -0.1299178
0001e0 6b 65 fd be 99 29 d4 3d dc e3 87 3e 57 05 b3 bd
       -0.49491438 0.103594966 0.2654103 -0.08741253
0001f0 59 ab c7 bb 3e a9 82 3e 41 85 01 3e 1b c9 fb bd
       -0.0060934243 0.25519747 0.12648489 -0.12294217
000200 9e c3 32 3d 06 a6 b1 3d c9 71 8f 3d 9c 83 4c 3c
       0.043643586 0.086742446 0.07004125 0.01248255
000210 1d ef 73 3e 95 18 ae bd 65 1d 1e be 6b 6e 05 be
       0.23821683 -0.085007824 -0.154409 -0.13030402
000220 4f ad 22 be 99 af 17 39 00 2b 60 be 0c fc f1 bd
       -0.15886424 0.00014465897 -0.21891403 -0.11815652
000230 a8 07 3b be 65 ac 6f 3e db dd 07 3e 83 ac 04 be
       -0.1826464 0.23405607 0.13268225 -0.12956433
000240 cf 7d 9c bd 45 be 88 3b 60 9e 42 3e 43 1f 5e 3d
       -0.076411836 0.0041730725 0.19005728 0.054229032
000250 7a 7d f0 3c 8f de d6 3e f7 88 1c 3e 94 36 1a bc
       0.029356707 0.41966674 0.15286623 -0.0094124265
000260 e9 79 53 be b4 36 62 3e 5c 48 65 3e 86 7e 30 bd
       -0.20651974 0.2209118 0.22390884 -0.043089412
000270 26 35 9d 3d 9e 41 83 3d e7 52 16 be ee 98 09 3e
       0.07676153 0.06409 -0.14680062 0.13437244
000280 0f ad 2d 3e 66 e1 40 3d 5d b2 87 be a9 ea e0 bd
       0.16960548 0.047089957 -0.26503268 -0.10982258
000290 1e 2f 3f 3e ca 2d 2a be f0 8b 68 3e fa c0 ac 3d
       0.18670318 -0.1661903 0.22709632 0.08435245
0002a0 3d 5f 08 be 0f 8d ce 3d 34 ab 68 be 97 07 f3 3c
       -0.1331758 0.100854985 -0.22721559 0.029666705
0002b0 94 0f 33 bd 90 ab e5 3c 3c d4 d5 3d b0 7d de bd
       -0.04371603 0.028035909 0.10440871 -0.10863817
0002c0 c6 41 74 3e f1 b5 14 be 09 b4 b0 3e 4f 14 81 be
       0.23853216 -0.1452253 0.34512356 -0.25210807
0002d0 1b 08 e1 bb de 2e 7e be 51 4b 01 be c9 50 61 be
       -0.0068674213 -0.24822566 -0.12626387 -0.22003473
0002e0 62 64 4a 3e 75 8e ab 3e 2a 02 7f bd 66 97 84 bd
       0.19764856 0.33507124 -0.062257923 -0.064741895
0002f0 31 26 64 be 47 0f 13 be 17 c8 a9 3e d1 b6 b1 3d
       -0.22280194 -0.14361297 0.3316047 0.086774476
000300 52 60 98 3a b1 5b 3b be f0 90 a6 bd c7 66 a8 be
       0.0011625385 -0.18296696 -0.081331134 -0.32890913
000310 98 95 39 3e c8 6e 60 bd 34 fe 97 3e ec ec 8e be
       0.18123472 -0.05479315 0.2968613 -0.27915132
000320 b6 8f 0f be c8 8a 94 3e 58 7c 87 3d 72 a5 03 be
       -0.14019665 0.29012132 0.066155136 -0.12856081
000330 33 c1 04 bc 7e 0c ff bd cf cb 1d be 7c 71 e7 bd
       -0.008102703 -0.124535546 -0.15409778 -0.11300942
000340 66 ba 17 3d 1b 25 8e be 6e 66 85 be e5 ce d2 bd
       0.037042998 -0.27762684 -0.2605471 -0.10293368
000350 b8 86 66 3e b2 da be 3d 0e e9 08 3c 57 2d fd bd
       0.22512329 0.093190566 0.008356346 -0.123621635
000360 20 0e a8 be 9e 21 9b 3b 0f 9d 11 bc 75 8a 92 3d
       -0.32823277 0.004734232 -0.008887543 0.07155315
000370 f7 b6 09 be 12 1f 88 be bc c4 ab 3e 4f e9 c5 bd
       -0.13448702 -0.26586205 0.33548534 -0.09663641
000380 c5 c3 72 be d3 9d 13 3e 36 3f 4b 3e d8 3a ba bd
       -0.23707493 0.14415674 0.19848332 -0.09093255
000390 f6 06 2f 3d 57 c5 9a be 46 ea 2f 3e bc de 05 3e
       0.042731248 -0.30228683 0.17179212 0.13073248
0003a0 11 0c 9b 3e 09 65 04 3e 62 ba 14 be af 80 92 3e
       0.30282643 0.12929167 -0.14524224 0.28613803
0003b0 18 e1 ca 3d e1 61 90 bc 99 66 1c 3e b6 c6 98 3e
       0.099062145 -0.017624797 0.15273513 0.29839104
0003c0 aa be e1 bd 0c 8b 80 bc ee 92 f4 3d 57 5d 39 3d
       -0.110226944 -0.015691303 0.11942087 0.04525503
0003d0 e5 ce 1d be 80 cb 34 3e d3 4d 29 3e 98 0b 8d 3d
       -0.15410955 0.17655754 0.16533594 0.06886977
0003e0 ea a6 8b 3e 00 ed 86 3e 54 75 11 3e 51 a3 03 3e
       0.27275783 0.26352692 0.14204913 0.12855269
0003f0 a0 8a 88 be 2b ac 3e be e0 80 0e 3e 7a cc c2 bd
       -0.26668262 -0.18620364 0.1391635 -0.09511657

classification.5.bias f4 [10]
000000 1a da e8 3b 49 ae 2b 3e 0f 50 97 3d 5c c5 d8 bc
       0.007106078 0.16765703 0.07388317 -0.026461296
000010 64 55 41 3d 98 94 2c 3e a8 af 19 3c 17 8a 24 ba
       0.047200575 0.16853559 0.009380259 -0.00062766805
000020 75 0a 92 3c 42 ee 56 bb
       0.017827252 -0.0032795821
