Model_Practice/LeNet/Max_best_accuracy_model.pth (torch, 249991 bytes, 10 tensors)

feature.0.weight f4 [6, 1, 5, 5]
00000000: 84f0 15be 3402 3a3d 0735 963e 7597 b5bd
00000010: f98e 7abd 2108 553e 59b5 473d d24e 6b3e
00000020: 99e6 0d3e f004 7bbe 5af8 4f3d 7f1a fe3d
00000030: 2be2 523d 1035 493d dc55 58bd 29d0 d53c
00000040: 83c1 b93d 641e 343d 8450 19bd 658e 7abe
00000050: c450 623e a15d 523e e208 253e 2300 88bc
00000060: a63a 6fbe f417 abbc ca82 983e 4c35 7dbd
00000070: 7660 ce3d 851d ab3e 5f08 1b3e 2436 6d3e
00000080: ee1a d73e 9ac4 f03e d6b3 073f 7238 4b3e
00000090: b46b b53e 168c 2b3e 7dfe e43e bb78 443e
000000a0: 5aea 6e3d df32 d4bd b7c0 86bd b0af 20be
000000b0: 426c 833d a633 57be 1469 92be 70fa 7ebd
000000c0: 6fe6 7bbe 2388 73be 1c98 873d 34b6 c13e
000000d0: 5e41 373e 5cd0 c33e 93b3 423e 2b27 0d3f
000000e0: 01e5 433f cf51 693f dcf1 d83e dcf5 573e
000000f0: 32cd 243f c028 4f3f 5602 553f 9888 d73e
00000100: b7be 383e 65d5 713e 719e 3d3f 4591 153f
00000110: 1ce0 6c3e 4122 03be 5efa a83e e462 ed3e
00000120: 32ec ae3e 80f8 253c 8930 e8bd 8207 a43d
00000130: 9182 a73c f50b bbbd 7144 30be 741c 8c3d
00000140: 2f63 213e a1c3 9cbd dfe6 7bbe 4e8b 0f3e
00000150: 66f7 ff3c 7b50 4cbd 4e20 13be 326d 74be
00000160: 1911 e73d 31b5 943d bdd4 f5bc 4023 f8bd
00000170: 31e5 0b3e a421 8a3e 118d 853e 8d65 313e
00000180: 72a5 0e3d ec46 d0bd 4032 003e 57a7 6b3e
00000190: a61c b43e 2fb7 e73e 15bd c63e 89e2 183e
000001a0: 3f21 0b3d 3729 e33e 6e6e 3b3f 4c5d bc3e
000001b0: ad62 2b3e c8d8 ef3d c5a9 103f b5e3 513f
000001c0: 607e cb3e 81c3 113d 2450 7abe 7665 083f
000001d0: d107 093f a0ff a13e cdcf b13d c7f0 a03d
000001e0: 23f6 923e 744f e93e f065 02bc f3fb 8f3d
000001f0: 761b 263e 91c9 123e e2f2 15be 3c54 c6bd
00000200: a608 b63c 1525 47be 2b47 0ebd 5660 a43e
00000210: cc89 793e 3289 863e e5f9 803e 96e7 ea3e
00000220: 1852 403f 5561 5f3f 2cff 043f d3f3 843e
00000230: ad43 e23e e493 333f 8a87 593f 608d d43e
00000240: ab76 7d3c 7cc6 d53e 89c8 043f 621e d53e
00000250: 505e d83e c765 f23c
-0.1464253 0.045412257 0.29337332 -0.08866779 -0.061171506 0.20803882 0.04875693 0.22979286
0.13857497 -0.24513602 0.050773956 0.124073975 0.05148522 0.04912287 -0.052816257 0.026100235
0.090701126 0.043974295 -0.0374303 -0.24468382 0.22101122 0.20543529 0.1611667 -0.016601628
-0.23362216 -0.020885445 0.29787284 -0.061818406 0.10076992 0.3342096 0.15139912 0.23165184
0.42012733 0.47024995 0.5300878 0.19845751 0.35433733 0.16752657 0.4472541 0.1918668
0.058328964 -0.103612654 -0.06579726 -0.1569202 0.06417133 -0.21015796 -0.28595793 -0.062250555
-0.24599622 -0.23782401 0.066208094 0.37834322 0.1789603 0.38244903 0.19013815 0.5513789
0.7652131 0.91140455 0.42372024 0.21089882 0.64375603 0.80921555 0.8320669 0.420964
0.18041502 0.2361656 0.7406989 0.5842479 0.23132366 -0.12806036 0.33003515 0.4636451
0.34164578 0.010130048 -0.11337382 0.080092445 0.020448001 -0.0913314 -0.17213608 0.068413645
0.15760492 -0.07654501 -0.24599789 0.14017984 0.031245898 -0.04988144 -0.14367792 -0.2386978
0.11282558 0.07261122 -0.030008668 -0.121160984 0.13661648 0.2697879 0.26084188 0.17323895
0.03482575 -0.10169777 0.12519169 0.23013054 0.35178107 0.45256945 0.38816133 0.14930166
0.033967253 0.44367382 0.7321538 0.3678993 0.1673686 0.117112696 0.5650905 0.8198808
0.39744854 0.035586838 -0.24444634 0.5327982 0.5352755 0.3164034 0.08682213 0.07858425
0.28703412 0.4556843 -0.007958874 0.070304774 0.16221413 0.14334704 -0.14643434 -0.09684035
0.02222092 -0.1944774 -0.03473584 0.32104748 0.24368972 0.26276547 0.25190654 0.4587981
0.75125265 0.8725789 0.5195186 0.25967273 0.44192258 0.7014754 0.8497244 0.4151411
0.015470187 0.41752994 0.5186849 0.41624743 0.42259455 0.029589547

feature.0.bias f4 [6]
00000000: 9000 27be 68c4 203e 495a 6c38 ff6b 38bd
00000010: f5ac a5bb 639d 853a
-0.16308808 0.15699923 5.635087e-05 -0.045024868 -0.0050560185 0.0010194

feature.3.weight f4 [16, 6, 5, 5]
00000000: ed5e 35bd 96ba 363b f481 83bc 9c14 9abb
00000010: 856f 6a3d 21ce 633d 404e 053c ee6a c6bc
00000020: 4ee1 04bd 2b52 91ba 493d 5a3d ec6b 153d
00000030: e67d 4b3b 6903 fe3c 5c2d d3bc cbfe c23d
00000040: 390b 77bd 88f2 08bd e39b 86bd 9382 4aba
00000050: d9f0 cf3c fcdc 3fbd d724 653d 08cd 933c
00000060: 6217 833c 49cf 8dbd 0521 94bd 698a 80bc
00000070: 47cc 66bc 11e5 9bbd a563 d1bc 94b1 8ebd
00000080: fecc 89bd a3ac a53d c374 4abc d9e2 ae3d
00000090: 94aa 173b 2be6 96bd 9c53 9bbd f8be 4ebc
000000a0: 6d7d 973d 39be e8bc 110e 86bd 419c c7bc
000000b0: f11c 03be 1c2a ee3c 37d7 703d 85b2 133d
000000c0: 1664 543a a867 a0bd 8379 febd b7fc efbc
000000d0: 7ca9 053d 9e81 cebc 5c5c f03c ab10 a6bd
000000e0: 1c71 9bbd 2b1b dabd cc5e 17bd 39f9 7d3d
000000f0: 35a1 063d 9b13 0f3d 3dd0 c43d 9459 a2bd
00000100: 8074 27be 95ac 383d 2138 343e 5893 d33d
00000110: 2cde a53d a095 27bd f6c2 853d 066b 14bd
00000120: 1063 e13c 0dab d03d a876 5b3d 00dc b6bd
00000130: 4700 e7bc 26eb a93b 4d63 bcbc 47c6 94bd
00000140: 840b d23b 99db 053b ac24 a83c 2ae4 a2bd
00000150: 8c34 78bd c754 ae3c 5378 8e3d cb33 5bbd
00000160: 59a8 2a3d 1742 8c3c 36b3 f73b bdba 8b3d
00000170: 7dab 623d a375 a7bd 70e6 9bbd 7ab8 a9bb
00000180: 0ea1 9fbd fa17 33bc 0fbe 83bd a26a 37bd
00000190: a4cf f0bd dd98 0fbe 0f79 a1bd d078 99bd
000001a0: 469a a43d b20e 8ebc ea46 d93c e823 f63c
000001b0: bc66 8dbd 229a 8cbc 5d7d 2e3d df33 9f3d
000001c0: d378 8e3d 626b 703d 4151 f4bd 87bc f03b
000001d0: 20e8 113e f7b2 c33d 7bac b2bb 3bb8 f7bb
000001e0: 4962 883d bf22 dd3d ed71 073d 785b 073e
000001f0: c98c b93d 2cf0 c1bb 39db bcbd 1de7 53bd
00000200: ecb3 c2bb 22d7 f23d 431e 0a3d f1b5 0cbd
00000210: f037 8bbd 5c7e f4bd e80d ae3c 163e ba3d
00000220: 6996 413d 5aa1 b3bb 25dc 7dbd d155 39be
00000230: 528a c63d 3e9b db3d 2ecb cf3d fa3c 4a3d
00000240: 2b03 f5bc 73b3 543c a4d3 82bd b78e e6bc
00000250: c250 c73d 29fe 25bb d4ea 0f3d 3442 693b
00000260: 029e 253c 8a01 5abd 26de 2d3c 0c53 c93c
00000270: c23e e83d 5cc9 36bd 0cd4 5d3c 3628 b73d
00000280: 07d7 a23d 6f81 563c 8bad aabd 24c1 d93c
00000290: 151d 6dbd e479 7cbd 30b3 97bb 5714 d23b
000002a0: 0e62 a73d 59ce ae3c d67a 81bb d73b ffbc
000002b0: 01f3 18bc 17a6 d0bb 2f19 c2bc 7da9 d1bc
000002c0: c99c 07bd 6bac 4e3d 06cd 593d 1e6f 173c
000002d0: 6422 443c 2f02 e8ba 016d 14bd 0fc6 e3bb
000002e0: 6420 7f3d da3a 663c 36c4 35bd da71 81bd
000002f0: a0cc 33bd 8b27 d33d 02fa efbb 5c89 253b
00000300: 4df6 56bd 9e01 46bd dc55 0fbd d15a 23bd
00000310: 1beb f13b edd1 61bd df23 4d3d 2fe5 b33c
00000320: 5355 193e 82ae 1d3e 5bf0 05be b7d9 0cbe
00000330: 85fa b8bc 6e26 3e3e 948f e33d 3c79 25be
00000340: add0 b3bd fa8e 573d 01ad 1c3e 4131 9e3d
00000350: 256f 0bbe e0a7 c4bd 9e16 853d 9961 c13d
00000360: c71a 2d3d 7db5 e1bc cbb1 563d 3184 28bd
00000370: 1abc 1ebd 61d6 273d 1c3f bb3d 4708 d3bc
00000380: 01c4 ce3c c7ab aa3b e6e7 bb3c a16b 193b
00000390: 77b3 f5bc 9cb1 813c 946e a4bd 4728 e1bc
000003a0: d7c7 9d3c df36 d2bc e9a2 46bd 4ee6 023d
000003b0: 0a20 8e3d ee8d b9bb 9a87 1b3d 2bd0 0ebc
000003c0: 9a94 8c3d 6ae3 a23b 889b a33c 8fcc 273c
000003d0: 1e01 cbbc 3145 16bd a1c6 1abc 6ffb a73d
000003e0: 0eba 3b3d 6a0b 1dbc 70a2 8f3d 2e62 4c3e
000003f0: 90b8 afbd eb3e c6bd 9e96 c5bb 3b51 e83d
-0.04427998 0.002788221 -0.016053177 -0.004702164 0.05723526 0.0556165 0.008136332 -0.02422091
-0.03244143 -0.001108711 0.053281102 0.036479875 0.0031050383 0.031007485 -0.025778465 0.09521254
-0.060313437 -0.03343442 -0.06572702 -0.00077251456 0.0253834 -0.046841606 0.055943336 0.018042102
0.01600236 -0.06924302 -0.072328605 -0.015691 -0.014086789 -0.0761205 -0.02556021 -0.06967464
-0.06728552 0.080895685 -0.01235694 0.085393615 0.0023142444 -0.0736812 -0.075843066 -0.012618773
0.0739697 -0.028411018 -0.06545652 -0.0243665 -0.12804009 0.029072814 0.058798995 0.03605892
0.0008102072 -0.07832271 -0.1242552 -0.029295309 0.032632336 -0.02520829 0.029340915 -0.08108648
-0.07589933 -0.10649713 -0.03695564 0.062005255 0.032868583 0.034930807 0.09610031 -0.07927242
-0.16353035 0.045086462 0.17599536 0.10330838 0.080990165 -0.040914178 0.065313265 -0.036234878
0.027513057 0.10188875 0.053579956 -0.089286804 -0.028198374 0.0051855026 -0.022996569 -0.07264381
0.006410064 0.002042508 0.020525299 -0.07953675 -0.060596988 0.02128066 0.06956544 -0.05351619
0.041664455 0.017121358 0.0075592054 0.06822727 0.055339325 -0.08176734 -0.07612312 -0.005179462
-0.077943906 -0.010931009 -0.06432735 -0.044779427 -0.11758354 -0.14023156 -0.07884418 -0.07493746
0.08037238 -0.017340992 0.026523072 0.030046418 -0.06904361 -0.01716334 0.042600024 0.077735655
0.06956639 0.05869616 -0.119295605 0.007346693 0.14248705 0.09555619 -0.00545269 -0.007559804
0.066593714 0.10797643 0.033067632 0.13218486 0.09060056 -0.0059185233 -0.09221501 -0.05173408
-0.0059418585 0.118574396 0.033720266 -0.0343532 -0.067977786 -0.11938164 0.021246865 0.09093873
0.047262583 -0.005481881 -0.061977524 -0.18099143 0.09694351 0.107229695 0.10146175 0.049374558
-0.029908737 0.012982237 -0.063880235 -0.028144224 0.097322 -0.0025328493 0.03513606 0.0035592439
0.010108473 -0.053224124 0.010612046 0.024575733 0.11340095 -0.044625625 0.013539325 0.089432165
0.079511695 0.013092383 -0.08333882 0.026581354 -0.057889063 -0.06163968 -0.004629515 0.006411116
0.08172999 0.021338629 -0.0039514108 -0.031156464 -0.00933528 -0.0063674557 -0.02369365 -0.025593514
-0.033108506 0.0504574 0.05317404 0.009242801 0.01197109 -0.0017700846 -0.036236767 -0.0069511007
0.06228675 0.014052117 -0.044376574 -0.063205436 -0.043896317 0.103102766 -0.0073235044 0.0025258875
-0.052480984 -0.048341386 -0.03499399 -0.03988153 0.007382763 -0.05513184 0.050083037 0.02195987
0.14973955 0.153986 -0.1307997 -0.13754927 -0.022580395 0.18569347 0.1111137 -0.16159528
-0.08780036 0.052626587 0.15300371 0.07724238 -0.13616617 -0.09602332 0.064984545 0.094424434
0.042261865 -0.02755236 0.05241565 -0.041141693 -0.038753606 0.040975932 0.091428965 -0.025760783
0.025239946 0.0052084657 0.022937726 0.00234101 -0.029992802 0.015831761 -0.080289036 -0.027485026
0.01926033 -0.02566093 -0.048495207 0.031957917 0.06939705 -0.0056626713 0.037971117 -0.008716623
0.06864281 0.0049709575 0.019971624 0.010241642 -0.024780806 -0.03668708 -0.009446771 0.08202254
0.045831732 -0.009585241 0.07013404 0.19959328 -0.085801244 -0.096799694 -0.006029918 0.113436185

feature.3.bias f4 [16]
00000000: 43a1 9b3d cc30 a63c 98ee 153c 57ad 093b
00000010: dd2b 38bd 680f 323d 73f6 c23b 4325 a1bd
00000020: f22b dbbc 2046 3ebc 97ab 3fbd 369a aabd
00000030: d1aa 373b 210b 533d c278 1d3d 3e22 e73d
0.075991176 0.02028694 0.009151123 0.002100786 -0.044963706 0.043471724 0.005949789 -0.07868435
-0.026754353 -0.011613399 -0.0467945 -0.08330195 0.0028025398 0.051524285 0.03844524 0.11285828

classification.1.weight f4 [120, 400]
00000000: 941f 24bd 8115 d73c 5bb3 0fbd ed98 213d
00000010: 7b1d 4bbd 2427 11bd 3ea1 babc 7990 293d
00000020: 0431 293d c23c db3c cae8 16bd eb67 b33c
00000030: b36e 683c aa02 0a3c f6a0 48bc ecc9 143d
00000040: a4d5 0bbc 4089 94bc 5fe6 f43c 47ff a3bc
00000050: c840 e73b 0902 793a 69ad d73c 8d0e 57bc
00000060: 0449 023d 0043 48bc 65b5 29bd 5a0d 03bd
00000070: 8731 0c3c d065 263d 1f7a 26bd d7e3 a23c
00000080: cb4f 66bb 04f0 39bd 3283 113d cdfd 29bd
00000090: d5a3 cebb a852 b93c 1ebd 75bb b360 263d
000000a0: fb32 063d de35 3bbd f231 0cbd 7ad0 25bd
000000b0: 4b91 3dbd e5f2 523a ad33 d1bb 99b7 4a3d
000000c0: 5956 c0bc 71eb 77bc 7db3 483b 37a9 a0bc
000000d0: 027b 353d 8ef5 24bd f7c9 9abc 2ba3 bdbc
000000e0: 337f debb e008 2d3c c211 a3bc ba49 a23c
000000f0: 16de 353d e68d 04bc bebe 853c f262 023d
00000100: 600f a9bc f12d c3bc 381e 3abc 1284 283d
00000110: c6b3 31bd 02e1 243c 5e43 fdbc de8b 1dbd
00000120: 29d0 0f3c 35e8 1b3c af2f 6f3c 7aab c5bc
00000130: bfe6 983c c0bd 49bd 57fc f03a cb89 273d
00000140: 5ed3 aa3c b72a 1d3c d80e febc da6e 45bd
00000150: 7037 c63c ae15 96bc 3e4c 893b ef62 ad3b
00000160: afdc f33c d74f 1fbc c42e 423d 7a99 92bc
00000170: db36 2ebd 74c9 41bd 7563 4fbd 2fcc 14bc
00000180: 6e1b 633c e8c8 3c3d 2805 733c 83fd 40bd
00000190: 04ad 093c ea23 a43c fce9 e0bc f611 2fbc
000001a0: 45b5 443d c1f5 91bc dc64 c8bb a92e d8bb
000001b0: 0724 043a d35f a3bc f3d2 b4bb b26f 583c
000001c0: 008a 59bc ced9 11bd d7e6 e5bc 5a51 3c3d
000001d0: cfad 233d 6b94 8dbc ea33 ae3c 8643 acbc
000001e0: 8496 07bd 812b 2fbd e159 0d3d c2e8 363d
000001f0: 527d 8d3c 2e99 5b3a 3d65 1bbc 6810 d9bc
00000200: 4b7d 4bbd 9c3e 2c3d 9e85 bbbc 2f78 76bc
00000210: b69f d43c 0ba4 f13c 2cde e6bc d97b b3bc
00000220: 5128 833b 4737 a83c b03c 673b 7076 3bbd
00000230: d7f9 103d 4769 87ba 896d cb3b caba 0f3d
00000240: 462f f03c 19c1 2e3c 0512 ffbc 5bb6 47bd
00000250: 0777 413d d28b b83c 066b d7bb 8a38 07bd
00000260: 68c3 08bd cb5e f0bb 0ba9 f83b 7823 3abd
00000270: a0d6 113d a21b 2c3d 9989 e2ba 790c 153d
00000280: 8b10 d8ba 3505 c7bc 6c5d 403d db3a d93c
00000290: 5b9b 0dbd 3e3e 203d 72fc 48bb 73da 3fbd
000002a0: ba50 ed3c 2d95 3bbd 3ff2 523c d31b 4bbd
000002b0: eff8 13bd faea f43c a6a1 d93c ce6d e4bc
000002c0: a4fa 8e3b 81fc 46bb 0f84 273d 7c33 4bbd
000002d0: 66bf 6fba 359d cf3c 84e6 20bd e8fa 6e3c
000002e0: fe87 263d 30ab abbc 76d2 413d 575c 12bd
000002f0: 2c71 e43c 0779 34bc 9ce4 8d3b 6a14 8e3c
00000300: 6e24 683c a77c 04bd a5a6 b33c b038 9bbc
00000310: 696e 213d fa42 a83c 6f17 8fbc 773b 63bb
00000320: 9afd 393d a966 1fbd 1fe8 1e3d 3440 e4bc
00000330: 1a5d 1fbc 2a11 273d aad8 22bd a1d0 053b
00000340: 4a88 27bd d87a dbbc 1ea0 bcbc ece6 09bd
00000350: 1907 1e3d dc70 e6bc 7bdb 32bd 4c5c 1d3c
00000360: beb2 e7bc f846 1dbd 1fde a03c 7554 f5bc
00000370: 8ca6 07bd e809 833c 136a 5ebb 7d5b f33a
00000380: 40d4 093d 05d6 31bd 3b77 2c3c 9447 6abc
00000390: db56 aa3c 7911 423c 50fb 79ba 31d1 91bc
000003a0: e346 7bbc e2c7 8dbc 351a 33bd 2e29 4b3c
000003b0: 5392 6abc 5ff1 31bd 89a8 213d c729 9abc
000003c0: a906 e13c 5234 59bc 969f 2dbd 1089 89bc
000003d0: 21cd 24bc a645 fa3c 73c4 22bd a8d1 16bd
000003e0: 7e70 843c f50b f3bc a69f 1bbd 309d 92bc
000003f0: 2633 52bc 042e b93c 1349 9ebc e4d3 2bbc
-0.040069178 0.026255371 -0.035083156 0.039452482 -0.04958866 -0.035437718 -0.022781964 0.041397545
0.04130651 0.02676237 -0.0368431 0.021900138 0.014186549 0.008423487 -0.012245407 0.03632538
-0.008534823 -0.018131852 0.029895006 -0.020019187 0.007057283 0.00094988995 0.026327806 -0.013126028
0.031807914 -0.012223005 -0.041432757 -0.031995155 0.00855673 0.04062444 -0.040643808 0.019884033
-0.0035142775 -0.045394912 0.03552551 -0.04150181 -0.0063061514 0.022622421 -0.0037496756 0.040619563
0.032763463 -0.04570567 -0.03422732 -0.040482022 -0.04628114 0.00080470584 -0.006384334 0.0494915
-0.023478674 -0.015131817 0.0030624561 -0.019611938 0.044306763 -0.04027324 -0.018895132 -0.023149094
-0.0067900657 0.010561198 -0.019905929 0.019810546 0.04440125 -0.008090472 0.016326305 0.031832643
-0.020637214 -0.023825618 -0.011359744 0.041141577 -0.043384336 0.010063412 -0.030915912 -0.038463466
0.008777657 0.009515812 0.014598771 -0.024129618 0.018664716 -0.049253225 0.001838575 0.040902894
0.02085274 0.009592704 -0.031012937 -0.04820142 0.024196357 -0.018320885 0.004189997 0.005291335
0.029768316 -0.009723625 0.04740788 -0.017895449 -0.042532783 -0.04731126 -0.05063196 -0.009081884
0.01386152 0.046090037 0.014832772 -0.047116768 0.008403067 0.020036656 -0.027455322 -0.010685435
0.048024435 -0.01781738 -0.006115539 -0.006597359 0.0005040769 -0.019943153 -0.005518311 0.013210224
-0.013277531 -0.035608105 -0.028064175 0.04597602 0.03996068 -0.017282685 0.021264989 -0.021028291
-0.033102527 -0.042766098 0.034509543 0.04465557 0.017271671 0.00083770126 -0.009484586 -0.02649708
-0.049680036 0.042051896 -0.022890862 -0.015043302 0.025955062 0.029497167 -0.028182112 -0.021909641
0.004002609 0.02053417 0.0035283975 -0.045767248 0.035394516 -0.0010331058 0.006208126 0.035090245
0.029319417 0.010666155 -0.031136522 -0.048757892 0.047232654 0.022527609 -0.0065740375 -0.033012904
-0.03338948 -0.007335519 0.007588511 -0.045443982 0.035605073 0.04201854 -0.0017283439 0.036388848
-0.0016484422 -0.024294475 0.046964094 0.026517322 -0.034571987 0.03912186 -0.0030668047 -0.04683919
0.028969157 -0.045796562 0.012875139 -0.049587082 -0.036126073 0.029897202 0.026566338 -0.02788439
0.004363375 -0.0030362906 0.040897425 -0.049609646 -0.0009145647 0.025343517 -0.039282337 0.014586188
0.040657036 -0.020955652 0.04731985 -0.035732593 0.027885996 -0.011015183 0.004330231 0.017343719
0.014168842 -0.03234544 0.021930048 -0.01894793 0.039411936 0.02053975 -0.017467229 -0.0034672895
0.04540787 -0.038916264 0.038795587 -0.027862646 -0.009726787 0.040787853 -0.03975741 0.0020418542
-0.04090146 -0.026791975 -0.023025569 -0.03366749 0.038580988 -0.028129987 -0.043666344 0.009604525
-0.028283473 -0.03839776 0.019637166 -0.029947499 -0.033117816 0.015995935 -0.0033937737 0.0018566694
0.033649683 -0.043416996 0.010526474 -0.014299292 0.020793369 0.011844986 -0.00095360447 -0.017799946
-0.015336725 -0.017307226 -0.043726165 0.012399955 -0.014317113 -0.04344308 0.03946737 -0.01881875
0.027468996 -0.013257103 -0.04238852 -0.01678899 -0.010058672 0.03055079 -0.03973813 -0.036821038
0.016166922 -0.029668787 -0.03799405 -0.017897218 -0.012829578 0.02260495 -0.019321954 -0.01048753

classification.1.bias f4 [120]
00000000: dc35 40bd 6cee 08bd 0edc 2b3d 4e87 303d
00000010: 3ba3 903d 8e01 843c 6aa7 cebc 8386 cd3b
00000020: c4c8 efbb a936 6f3c 2fd9 0f3d 8642 263c
00000030: 2c11 debc 44af ccbc 9f68 9d3c 2be2 21bb
00000040: 9f43 96bc 4297 b3bc c200 193d 57bb 69bc
00000050: 9310 173d 3006 373d db84 4ebd d7aa b33c
00000060: 5480 5b3b db91 363d ca8f d0bc 72b4 253d
00000070: fec5 08bc ebcc 2b3c 9cab 25bd c6f1 85bb
00000080: b8d9 3abc e036 433d 8fd0 763d adb7 783d
00000090: 9509 433d 3560 333d 1ff4 ea3c 43a0 ad38
000000a0: e1ff 0a3b 3520 8abb 0719 2d3c 56dd 01bd
000000b0: c146 2f3c cbaa ac3c 7ec6 9d3c 540b 9bbb
000000c0: 516a 983c 50e3 33bd 08ea 9ebc 5088 b9bc
000000d0: 6c74 843c 65c4 373d 842e b9bc ed72 363c
000000e0: 8a61 073b e721 443d ba2d a9bb 2ba5 173d
000000f0: 1f2e 8e3c 5ed7 0dbd f6a3 18bc 8826 03bd
00000100: d665 08bc 36e7 a43c 6a04 2a3d d8dc 8f3c
00000110: 9f55 853b e85a 64bc 2d87 d8bc 40db ba3c
00000120: dce9 263d 32b5 43bd d4cd c2bc 788f 573c
00000130: 59c5 403d 2d39 b0bb ca72 b33c cac5 2c3d
00000140: f02f 3ebd c9e0 0c3d 7c88 f2bb cb39 17bd
00000150: 932b ba3c 2dbf f73c c8eb c13c 33a3 97bc
00000160: 611d 103d 3cbb 483d cf7f 0abd b7ac 803c
00000170: 6481 263d 0653 0f3d a663 15bd 6d21 18bd
00000180: 8d4c 22bc 31fb 0f3d b140 9939 ec1f 413c
00000190: 47f4 6ebc 4582 a0bc 66a7 83ba b29a 593d
000001a0: 899b a1bc 248b 2a3c 2aed ecbb 9d44 3b3d
000001b0: 731e 343d 2933 ecbc c5eb 1bbd 849b 1a3d
000001c0: b62e 1fbd ca0f e9bc bacb 24bd 5404 48bc
000001d0: e26c 073c 245c 37bd b109 cfba 19aa febb
-0.046926364 -0.0334305 0.041957907 0.043097787 0.07062384 0.016114023 -0.025226314 0.0062721386
-0.0073176343 0.014600434 0.03511923 0.010147696 -0.027107798 -0.024985917 0.019214926 -0.0024701457
-0.018342791 -0.021922711 0.03735424 -0.014265857 0.03688104 0.044683635 -0.05041967 0.021932049
0.0033493238 0.044572692 -0.025459189 0.04045529 -0.008347986 0.010485868 -0.040446863 -0.0040876595
-0.011404447 0.047659755 0.06025749 0.060722042 0.04761656 0.043792922 0.02868086 8.279134e-05
0.0021209645 -0.004215265 0.010565049 -0.031705223 0.010698021 0.021077534 0.019259688 -0.004731575
0.018605383 -0.043917954 -0.019398704 -0.022648007 0.016168796 0.04486503 -0.022605188 0.011135799
0.0020657503 0.047883894 -0.0051629217 0.03702275 0.017355977 -0.03462922 -0.009316435 -0.03201917
-0.008325061 0.020129781 0.041508116 0.017561361 0.0040690447 -0.013937689 -0.026431644 0.022809625
0.04075037 -0.047780223 -0.023779787 0.013156764 0.047063205 -0.0053779096 0.021905322 0.042180814
-0.046432436 0.03439406 -0.007401524 -0.03692035 0.022725856 0.030242527 0.023672 -0.018510437
0.035184268 0.049006686 -0.033813294 0.015707357 0.04065074 0.034991287 -0.036471985 -0.037141252
-0.009905946 0.035151664 0.00029230633 0.011787396 -0.014584607 -0.019593367 -0.0010044395 0.053126045
-0.019727485 0.01040915 -0.0072304206 0.04571973 0.04397435 -0.028832989 -0.038066644 0.037745968
-0.038862906 -0.028449912 -0.04023335 -0.012208063 0.008265706 -0.044765607 -0.0015795735 -0.007771742

classification.3.weight f4 [84, 120]
00000000: 031e 8b3c bafb 05bd 08f1 6ebc 1e9e d3bb
00000010: 8ba6 b6bc bece 2f3d bd2f 663d 0bd7 e93b
00000020: db27 01bc d015 8c3d 86ac 4c3d ebd3 8bbc
00000030: 2184 94bd 6c22 b93d 8967 e43c 0246 a2bc
00000040: 1d65 6e3d 0b4c 5c3d 4f19 573b b229 9dbd
00000050: cf95 7c3c 6b0d 3dbd cc9c 6bbd 00bf 103c
00000060: c8bc f3bc 70f5 053c 4628 afbd 94a4 13be
00000070: 3f67 bfbc 9fc6 a5bd 753d 92bc 31dc afbc
00000080: ca12 7b3d a546 c8bd 2d34 e5bc cd23 5abd
00000090: 10cf 96bd ea80 b33d b066 90bd b490 e4bd
000000a0: bd19 d13d cfb4 e43d a6e0 e4bb 0d62 0c3d
000000b0: ac07 523d 8428 213d b8c9 debd dc47 dc3c
000000c0: e125 34bd dd3f b63a b8ef acbc 7e7b efbc
000000d0: d64c b83c 546d f93c c67d 083d 54b7 3f3c
000000e0: 76e9 00bd b128 083d dd76 0d3d 75b7 3cbd
000000f0: a059 a0bd 075a d23b c84c 84bd 8886 643d
00000100: 7790 483c dd24 fbbc a315 b63d 5e30 903b
00000110: 0ba0 3a3d a5a3 b93d 3b95 86bd 0e22 8e3d
00000120: 3009 da3d 7dcc 4fbd 533a 2db9 eb54 64bd
00000130: 9e82 73bd aa25 16bd 8541 eb39 1af1 eabc
00000140: f37f c5bc b597 a4bc a27d 99bd e8d4 8bbd
00000150: e0c4 173d 4920 f4bd e009 d9bb 5985 893d
00000160: e12d 8bbd cad7 44bb 8925 c2bd 1e6a a63d
00000170: e7c3 73bd c613 6cbd 5a9f 933c b84e 793c
00000180: 3f02 463c 1be5 093d 008c 003d 48b2 943d
00000190: c22a 1bbd c56b 83bd 96a0 c33d f8ad 0b3e
000001a0: 8ea7 30bd 0c92 fbbc a65a 3ebd f315 dbbc
000001b0: 53b3 993c a52c a5bc 2305 a3bd 3010 983d
000001c0: 5a27 86bd 7329 ce3d 8f34 8d3d 93fd 0f3e
000001d0: eb75 d93c c5bc bf3d 9f3c 8abd f002 463d
000001e0: 139e acbb 798a 0f3d a34b 37bd 8d84 e6bb
000001f0: 245b 203b a076 d5bc 6769 5cbc e3bb 9d3d
00000200: f821 1bbc eeab b83d efc4 2f3d 6c8e 8e3d
00000210: 4d31 973d 519b c73c ef85 493d eb00 2c3d
00000220: 2ac6 0cbe c4b9 d73b bdd8 063e b52d bc3b
00000230: 874a d339 38ec 923d 5753 f03c 826d a33d
00000240: 6265 2a3d c5c0 77bd 1a7e 7b39 a96b 283d
00000250: 7944 99bd 284c d63d 773c d9bd 7d56 b63d
00000260: cbe9 053e d51b 8bbc 891c b73d 7fde 89bd
00000270: 82dd ddbc c5e0 1a3e 233e 543e 70f0 d83d
00000280: 4a67 193b feac a43c edf6 723d 1d19 6dbc
00000290: e7dd 933d 2fe6 983d e36a 2dbd ba73 06be
000002a0: 45af 49bd d577 b5bd fe90 e93d bb81 c43d
000002b0: 2dfd 9bbd 85bc 223b 9506 57bd c644 35be
000002c0: 6fea 793d f2b4 c5bd 1f44 0cbd db51 87bd
000002d0: e484 3cbd 873b c4bd fcbd 70bd 1985 893d
000002e0: ad11 3cbc 06d9 38bd 6b34 7e3d f626 6e3c
000002f0: 993b 39bb 939c be3d 8c0c 00bd 6426 48bd
00000300: 2348 02bd 6386 8b3d 9bb0 aebb 2e88 c3bc
00000310: 65ae 973d 9a4c 0c3d 935f 0cbd f2ad 00be
00000320: 4775 163d 4b52 ef3c c788 6bbd 739c e53b
00000330: f7a8 10bb 0a84 003e ec72 5fbc 4139 d8bd
00000340: ba4b bfbd 4590 753d 3fcf d33b c7f1 c1bd
00000350: c09b 473d ed66 6c3d bd58 ec3c c4a1 c2bd
00000360: 8112 afbd 62a4 3dbd 73e1 64bd 4043 8ebb
00000370: 3390 b33d c26e 43bd 4318 6d3d 85ab ebbd
00000380: c755 94bc c6ec 0b39 a833 f33c d121 fa3d
00000390: a64c 27bd 7697 123e d280 2bbc 92cc 363d
000003a0: a619 cdbb d994 e13d a288 54bd b178 823c
000003b0: 9736 eabd 94d8 4fbd b0d6 c23b c4c4 acbd
000003c0: 7c7b 5cbc fa8c 84bd 6efd 6e3d 4b5a a4bd
000003d0: ee55 063d 456f 2c3d aa5d 9b3d 1a3c 9d3d
000003e0: 7d7c 973c 49d6 7c3d 3fc4 083d cfed d2bd
000003f0: c6ec 933d 5b66 a5bd 3e02 46bd fa3b 7ebd
0.016982084 -0.03271077 -0.0145838335 -0.006458058 -0.02229621 0.042921774 0.05619787 0.007136231
-0.007883037 0.06840098 0.04996922 -0.017068824 -0.07251764 0.090397686 0.0278814 -0.019808773
0.058201898 0.053783458 0.0032821482 -0.076739684 0.0154165765 -0.046155374 -0.05752258 0.0088346
-0.029753104 0.008176193 -0.085526034 -0.1441825 -0.023364661 -0.080945246 -0.01785157 -0.0214673
0.061297216 -0.097790994 -0.02797898 -0.0532568 -0.07363713 0.08764823 -0.07050836 -0.111604124
0.10209987 0.11167299 -0.006984788 0.034273196 0.051276848 0.03934528 -0.108783185 0.026889734
-0.043981437 0.0013904531 -0.0211104 -0.02923369 0.022497576 0.03044764 0.033323072 0.011701424
-0.031472646 0.03324193 0.034537185 -0.046073396 -0.078295946 0.0064194235 -0.06459957 0.05579236
0.012241474 -0.030657226 0.088908456 0.004400297 0.045562785 0.09064416 -0.06571432 0.06940089
0.106462836 -0.050732125 -0.00016520293 -0.055745047 -0.059450738 -0.036657013 0.0004487151 -0.02867942
-0.024108863 -0.02009187 -0.07494666 -0.06827718 0.03705299 -0.119202204 -0.0066234916 0.06714887
-0.0679586 -0.0030035847 -0.094798155 0.08125709 -0.059513 -0.057636045 0.01802032 0.015216522
0.012085496 0.033665758 0.031383514 0.07260567 -0.037882574 -0.0641704 0.09552114 0.13640583
-0.043128543 -0.030709289 -0.046473168 -0.026743865 0.018762266 -0.02016289 -0.07959964 0.074249625
-0.065504745 0.100664996 0.068947904 0.14061575 0.026545485 0.09362177 -0.06749844 0.048342645
-0.0052678674 0.035044167 -0.044749867 -0.0070348443 0.0024468387 -0.026057541 -0.013452864 0.07701852
-0.009468548 0.09017168 0.04291242 0.069607586 0.0738245 0.024366053 0.049199995 0.041993063
-0.13747469 0.0065834243 0.13168617 0.0057427534 0.00040300583 0.071739614 0.029336615 0.07979871
0.041600592 -0.060486574 0.00023984202 0.041118298 -0.07483763 0.104637444 -0.10607236 0.08903215
0.13077466 -0.016981045 0.089409895 -0.06731891 -0.027083162 0.15124805 0.20726828 0.10592735
0.0023407512 0.02010202 0.059317518 -0.0144713195 0.07220059 0.07465779 -0.042338263 -0.13130084
-0.049239416 -0.08860747 0.11404608 0.095950566 -0.07616649 0.0024831605 -0.05249651 -0.17702016
0.06101459 -0.09653653 -0.034244653 -0.066074096 -0.046025172 -0.095816664 -0.058774933 0.067148395
-0.011478824 -0.045128845 0.06206171 0.014535656 -0.0028264283 0.09307208 -0.031261966 -0.048864737
-0.031807076 0.068127416 -0.0053311116 -0.023868646 0.0740631 0.03425274 -0.034270834 -0.12566355
0.03673294 0.029214045 -0.057503488 0.0070071756 -0.0022073367 0.12550369 -0.013638239 -0.10557795
-0.093406156 0.05995204 0.0064639146 -0.094699435 0.04873252 0.057715345 0.028850907 -0.095035106
-0.08548451 -0.046299346 -0.055879068 -0.004341513 0.08767738 -0.04771305 0.057884466 -0.11507324
-0.018107308 0.00013344278 0.029687718 0.12213481 -0.040844582 0.1431559 -0.010467725 0.044628687
-0.006259161 0.110147186 -0.051888116 0.01592669 -0.114361934 -0.050743654 0.005946003 -0.084359676
-0.013457175 -0.06472202 0.058347158 -0.080250345 0.032796793 0.042098302 0.075862244 0.07677479
0.018491978 0.061727796 0.03339028 -0.10299265 0.07222895 -0.080761634 -0.048341982 -0.062068917

classification.3.bias f4 [84]
00000000: 0b19 9cbc c4df 6c3d ba59 623d 35b3 69bb
00000010: 16e9 d73c 8a1f d53c 36dd 73bd f665 81bd
00000020: 9c79 813d 3d70 293d 92bf 263d 54f9 ea3c
00000030: ad03 2d3d 2b51 9e3d f075 c1ba a724 b73d
00000040: 311d abbc fe48 c3bc 8f89 8b3d dcc5 b5bd
00000050: 5598 bfbd 2673 d73c 2b90 b13b 5d02 833c
00000060: a352 e4bb b5c6 91bd 2a02 81bd 77b1 98bb
00000070: 7734 b33d b058 803d 3924 933d 5288 8a3d
00000080: 7dae d43c da72 ad3d 758c 833d 21d1 e3bb
00000090: ff0f 81bc 1ced 4d3d bba1 493d a295 95bd
000000a0: 3a9c 953d b039 bb3b 6271 a93d 1497 e43c
000000b0: 6d7d 643d abf1 8b3d 379f b93d 26da 4f3d
000000c0: 786a a73d af5f 93bc f938 db3d 5c62 833d
000000d0: 76fb 91bd 97cf d8bc 6593 353d 12f9 563d
000000e0: 6363 6e3a 9467 3ebd a28a 3d3d 741a a5bb
000000f0: 6e9c 7fbc 5cd6 3ebd 9124 0e3d 9982 a53d
00000100: fab4 afbd a7b0 84bd 307f 0f3d 8aab be3d
00000110: 4ade d53d 71b2 d93c e33b b63d 4707 bbbd
00000120: 9f78 c83d cfc9 6dbc b983 a93d 26f6 c53d
00000130: 3cac 96bd 10d8 4bbd c4a6 a73d b3f0 693d
00000140: d0c5 56bd 87e3 ab3d cf21 8c3d 1d62 9cbd
-0.01905491 0.057830587 0.05526135 -0.0035659794 0.026356261 0.026016016 -0.059537135 -0.06318276
0.06322023 0.041366804 0.04071004 0.028683342 0.042239834 0.07730325 -0.001475988 0.08942538
-0.020887943 -0.023838516 0.068133466 -0.08875629 -0.09355227 0.026300024 0.0054187975 0.015992338
-0.006967859 -0.071179785 -0.06299241 -0.0046598273 0.08750241 0.06266916 0.07184643 0.06764282
0.025962109 0.08469172 0.064232744 -0.0069524203 -0.015754698 0.050274953 0.049226504 -0.07303931
0.073051885 0.005713664 0.08273579 0.02790407 0.055783678 0.06833204 0.09063571 0.050745152
0.08174604 -0.017989961 0.10704226 0.06415245 -0.071280405 -0.026466174 0.04433002 0.052483626
0.0009093789 -0.0464855 0.04627479 -0.005038554 -0.015601261 -0.046591148 0.03470284 0.0808155
-0.085794404 -0.06479006 0.035033405 0.09310062 0.10442789 0.026574345 0.08898141 -0.091322474
0.09788632 -0.014513447 0.08277077 0.0966609 -0.0735707 -0.0497666 0.08186105 0.057114314
-0.052434742 0.08393007 0.06842386 -0.07635901

classification.5.weight f4 [10, 84]
00000000: e479 dbbd 0cb5 733d 407b 483d 60c8 193e
00000010: 4f35 b3bd 229e e23d e90f 36bd 4d9e ec3d
00000020: 4540 7e3e 9b6a cd3d 8330 9abe a3ab f33c
00000030: 289d a8bd a16a 83be f5c0 e6bb 0acc 62bd
00000040: a793 4ebd 3477 2a3b 68ad 353e 74fa 2bbd
00000050: cdb1 04bd 8445 c3bd aa1f 3fbe 5384 983d
00000060: f716 0c3d 5c5f b9bd ffbb 2bbe 400c 7b3d
00000070: c591 19be db7e f4bd de08 913e e567 dfbd
00000080: 032c 213e a7a6 2abe c98b 0a3d 62da 7dbe
00000090: 37af b03d 14e2 603e 954d ea3c aeed f9bd
000000a0: d454 c23d f8cd d43d 8072 97bd 528a 49be
000000b0: c323 a83d b88f 163e bddb 7ebd 32b6 373e
000000c0: f7c2 493e ab15 46bd 0997 82bb ae64 99be
000000d0: 0c26 fd3c 580a 2b3e 971d 84be d666 423e
000000e0: 93b4 c23d fb8a 0abd fb47 26be 22bd a83e
000000f0: d044 e8bd 6659 f33c a756 993d 29a6 4cbd
00000100: d990 723c 283c fa3d 5bda 74be 56bd 3dbe
00000110: 7bb0 efbd 41ed c33c 8854 5c3d 0358 afbd
00000120: b37a 76bd 6f02 2dbe c4dc d6bd 686e 93be
00000130: 48b5 f13d c369 f83d 4c28 9c3e 0344 433c
00000140: 2243 dfbc f931 48be 32d3 72be f7ff 653e
00000150: e9f3 00be 9e99 96be f24d 10bd e871 04bd
00000160: 8ca0 843c 3590 333e 0e45 b0bd 6e5f b1bd
00000170: d6c7 88be 4fef 97bd f009 803e 7600 1dbe
00000180: e3bb 93be f76c 29bd f57d 2cbe 953b 263d
00000190: bbbd 4a3c 230d 443d 5fe6 e3bd d7f4 da3d
000001a0: 229b 93bd 8a61 b63d a01e 43be 5ebb 813c
000001b0: c49c 19be a5f0 fe3c fbe5 4ebd 5799 89bb
000001c0: 6d6f 353d 25be 433c 33ed 8c3e e9ba 913a
000001d0: f8f7 ae3d 52b0 883e 6e17 e5bd ff8e a3bc
000001e0: ecfe d2bc 04e9 303c fa43 dabd d011 223e
000001f0: f34a 6bbe 8e49 2bbd 5bcb 1b3e 4710 a23d
00000200: 3282 c83d 7243 60be cce5 273c d412 74bd
00000210: 8013 6a3d ce82 d7bd 2fc8 753e 3439 353e
00000220: 10a4 eb3c 7ced 813c d8d6 3cbe 3228 893c
00000230: 38ee 0d3e 23c1 c13d ddcc 30be b3da ffbc
00000240: 9c7e 8d3e 99af 4b3d 2b9c 0b3d 2da0 84be
00000250: 274f 693e 34b7 343e c2e9 cebd e0a8 d1bd
00000260: d1cd 9ebd c5cd 53be a242 f5bd 898e 133e
00000270: 3be0 5c3d 5586 1b3e 9390 5bbe 3239 be3d
00000280: f727 843e a1b4 7c3d 8d5a cc3d 314e b33d
00000290: 8b73 963c 0be6 593e 9109 0b3e 68dc f83d
000002a0: e8d9 983d 102f 76be e3f1 b63b 10d7 04be
000002b0: 10ca d0bd 3282 813e 39e6 933e 8588 3cbd
000002c0: 76f1 423d 1e88 d23e ec01 d43d 8e78 e6bd
000002d0: e82a 06bd 1d5e ab3b eca9 8c3d d94e df3c
000002e0: d246 463d 863a db3d d72c c73c 9eb2 233d
000002f0: 3688 15bd 5cfe 91bd 1390 8e3e 40d5 733e
00000300: f498 42be 1835 b6bc 987d 4a3e cacc c4bd
00000310: 2cc6 39be c239 c03d 91d7 90be c887 973e
00000320: 0526 74be e811 013e 80fc 073e 651f 263b
00000330: a237 ae3b 35d9 a5bc 2ce9 c8bd 6511 a13d
00000340: ec8b 463e 4425 cd3d 682b b5bd b4ab bdbe
00000350: 9ec6 433e 1b5c 873c 6137 53be 8536 1dbd
00000360: 6240 14be a50a 153e cce0 5cbc be8b 0ebe
00000370: 8f09 d5bd 8133 263e 48fb 773d 1172 293e
00000380: 0473 3ebe 6834 42be a640 8c3d 2002 34be
00000390: 3aaa b23d 14d9 32bc 181e 033e ce52 ae3d
000003a0: 8768 94bc 77e5 05be 8855 5e3c 90fd ce3d
000003b0: ad1e 6a3e cb05 af3e 8b81 13be c8b4 e63b
000003c0: 5d18 4a3e 7ae7 ecbd 19f1 54be 04a5 00be
000003d0: a909 f9bd 64f7 113e e5af ea3d 53b7 41be
000003e0: 5f46 bebd d385 693c 2dce a7be d34c 77be
000003f0: b834 d9bd ecf3 803e c29c efbd 0a69 d4bd
-0.10716608 0.05949883 0.048945665 0.15017843 -0.08750402 0.11065318 -0.044448767 0.11553631
0.24829204 0.10030099 -0.30115137 0.029744929 -0.082331 -0.2566729 -0.0070420452 -0.055370368
-0.05043378 0.0026010992 0.1774193 -0.041986898 -0.032396127 -0.095347434 -0.18664423 0.07447114
0.03420159 -0.090513915 -0.16770934 0.06129098 -0.14997013 -0.11938258 0.28327078 -0.10908488
0.15739445 -0.16665135 0.033824716 -0.24790338 0.086271696 0.21961242 0.028601447 -0.12203537
0.09488836 0.10390848 -0.07394886 -0.19681671 0.08209946 0.14703262 -0.062221278 0.17940596
0.1970328 -0.048360508 -0.00398529 -0.29959625 0.030901931 0.16703165 -0.25803825 0.18984541
0.09507098 -0.03382395 -0.16238396 0.32956797 -0.1134125 0.029705714 0.07487231 -0.04996315
0.014805042 0.12218505 -0.23911421 -0.18529257 -0.11703583 0.023916842 0.053791553 -0.08561709
-0.06017561 -0.1689546 -0.104913265 -0.2879517 0.11802155 0.121295474 0.30499494 0.011918071
-0.027253691 -0.19550313 -0.23713377 0.22460924 -0.12593044 -0.29414076 -0.035230584 -0.032335192
0.016189836 0.1753548 -0.08606921 -0.0866078 -0.26714963 -0.07418691 0.25007582 -0.15332207
-0.28854284 -0.041363683 -0.16844924 0.040584166 0.012374337 0.04786409 -0.11127924 0.10691231
-0.072073236 0.08905323 -0.19054651 0.015836414 -0.15001208 0.031120608 -0.050512295 -0.0041991877
0.044295717 0.011947189 0.2752472 0.0011118326 0.0854339 0.26697022 -0.111861095 -0.019965647
-0.025756322 0.010797743 -0.10657497 0.15827107 -0.2297781 -0.041818194 0.15214293 0.07913261
0.09790458 -0.21900728 0.010247659 -0.05958827 0.057147503 -0.10522996 0.24002145 0.17697603
0.028764755 0.015860312 -0.18441331 0.0167428 0.13860404 0.09460666 -0.17265649 -0.031232214
0.27635658 0.04972801 0.03408448 -0.25903454 0.227841 0.17648011 -0.101031795 -0.102372885
-0.077541 -0.20683964 -0.119756 0.14409842 0.05392478 0.15187962 -0.2144187 0.09288253
0.2581174 0.0616957 0.09978209 0.08755148 0.018365642 0.2127916 0.13577868 0.12151414
0.07463437 -0.2404139 0.0055830344 -0.12972665 -0.1019479 0.25294644 0.28886583 -0.046028633
0.047593556 0.41119474 0.10351929 -0.11253463 -0.032755762 0.005229725 0.068683475 0.027259277
0.048407383 0.10704522 0.024313373 0.039965264 -0.036506854 -0.07128593 0.27844295 0.23811817
-0.1900366 -0.022242114 0.19774473 -0.09609373 -0.18142003 0.093860164 -0.28289464 0.2959578
-0.23842628 0.12604487 0.13279915 0.0025348302 0.0053166905 -0.020245174 -0.09810099 0.07864646
0.19389313 0.100168735 -0.0884617 -0.37045062 0.19118735 0.016523411 -0.20626594 -0.038382072
-0.14477685 0.14554842 -0.01348133 -0.13920495 -0.10402214 0.16230585 0.060542375 0.16547419
-0.18598562 -0.18965304 0.06848268 -0.17578936 0.087238744 -0.010916013 0.12804449 0.085118875
-0.018116249 -0.13075815 0.013570197 0.10106957 0.22863264 0.34184107 -0.14404885 0.007040594
0.19735856 -0.11567588 -0.20795096 -0.12562948 -0.12160046 0.14254528 0.114593305 -0.18917589
-0.09290766 0.014253098 -0.32774487 -0.241504 -0.106057584 0.25186098 -0.11699821 -0.10371597

classification.5.bias f4 [10]
00000000: 3ab2 0cbe e8bc 3b3b edda 53bd 3ed0 a3bd
00000010: 6079 b2bd 7890 ea3c 8f61 5cbb 378b d0bc
00000020: 8626 99bc 0cc9 03bd
-0.13739863 0.0028646532 -0.051722456 -0.079987034 -0.08714557 0.028633341 -0.0033627485 -0.025457008
-0.018695127 -0.032174155
