Model_Practice/LeNet/Max_later_model.pth (torch, 249991 bytes, 10 tensors)

feature.0.weight f4 [6, 1, 5, 5]
00000000: bd6c 14be 6d5c 6a3d 5cdb 9e3e 6fb6 a1bd
00000010: c1b0 7bbd 8d26 593e e0ed 853d c2ff 7d3e
00000020: 2762 153e e8c2 7cbe e7f2 763d 368d 143e
00000030: d52a 8f3d 38dd 5c3d a1ab 67bd f636 1a3d
00000040: 0e50 e43d f58c 6d3d 539e 12bd 5b5e 7fbe
00000050: a03a 6e3e 4072 643e 603a 313e 92e5 7dbc
00000060: 61a4 74be ef28 6abc cbae a13e 7bb3 2fbd
00000070: 300f 013e 5e68 bb3e fcd9 313e 111f 8d3e
00000080: 2890 f13e 491d 073f 7756 153f f3c7 613e
00000090: 3047 c53e 8ff7 4b3e fe36 f73e dbe3 683e
000000a0: 6243 813d ec97 debd 8906 9bbd ef42 26be
000000b0: 5c18 943d 7cb1 64be bbb2 a0be 12dd bebd
000000c0: dc49 8abe 4203 79be 04bf 923d 6b50 d73e
000000d0: 474e 6d3e 69ec d53e 3c26 5b3e b09e 1b3f
000000e0: c52f 5f3f f579 823f b211 003f f2b2 7c3e
000000f0: 2ff4 3a3f 61c3 703f ee3d 743f fe6b 013f
00000100: 3983 563e d0c2 9f3e d73f 583f cb11 2b3f
00000110: 9728 8c3e c3ca 01be ab05 bb3e 8b6f 033f
00000120: 81c2 be3e 0c96 843c c063 fbbd a7e4 aa3d
00000130: c683 883c 9739 c8bd e798 33be d73f 923d
00000140: c210 213e 0e38 afbd 7afa 81be 730f 0f3e
00000150: 3a1b 233d 762d 5ebd 4f42 1fbe bea6 79be
00000160: 8798 f03d cd93 b13d cf97 06bd 8321 01be
00000170: 7c47 103e 6cf6 903e e447 8e3e 8a75 353e
00000180: a34e 313d af28 b5bd 320e 113e 8f1a 7b3e
00000190: ddef bf3e 668f fe3e e0e8 dd3e 331a 2b3e
000001a0: 1e65 0c3d 0c62 013f 23d2 513f b315 e23e
000001b0: 6e86 493e 959e e83d 530e 263f 1bfd 6b3f
000001c0: 7a2c f23e 234e 853d dd0a 81be c200 1b3f
000001d0: 7df0 1d3f c50a bd3e 275e cd3d a4d8 913d
000001e0: c8f8 a53e 2ecb fe3e 0c13 1b3c cb66 843d
000001f0: 9140 1b3e 30da 043e 4c56 1fbe e73e bfbd
00000200: 35da b93c 02e7 40be fed2 b3bc 374d b73e
00000210: 0153 943e 3213 983e 6039 8f3e e52a 043f
00000220: 9697 583f d45e 793f 3ee1 183f fbad 9d3e
00000230: 0560 043f 617f 503f a7b1 753f f3e0 fa3e
00000240: 633b 423d 183f ee3e 9e79 163f e6a7 f53e
00000250: d045 ed3e 702d 183d
-0.14494605 0.05721705 0.31026733 -0.078961246 -0.061447863 0.21206112 0.06539512 0.24804595
0.14588223 -0.24683726 0.060290243 0.14506993 0.069905914 0.05392191 -0.056560162 0.03765007
0.11148082 0.057995755 -0.03579552 -0.24938338 0.23264551 0.22309208 0.17307425 -0.015496628
-0.2389083 -0.014291986 0.3157867 -0.042895775 0.1260345 0.36603063 0.1736831 0.27562764
0.47180295 0.5277906 0.5833506 0.22048931 0.38530874 0.19918655 0.48284143 0.2274317
0.063116804 -0.108688205 -0.07569606 -0.1623647 0.07231209 -0.2233333 -0.3138636 -0.093195096
-0.27009475 -0.24317649 0.071653396 0.42053542 0.23174392 0.4178193 0.21401304 0.6078901
0.87182266 1.0193468 0.50027 0.24677637 0.73028845 0.94048125 0.95407 0.5055541
0.20948495 0.31203318 0.8447241 0.66824025 0.27374718 -0.12675004 0.36527762 0.51342076
0.3725777 0.01618483 -0.12274885 0.08344393 0.016664397 -0.097766094 -0.17538796 0.07141083
0.15729049 -0.085556135 -0.2538641 0.13970737 0.039820887 -0.054242574 -0.15552638 -0.24380013
0.11747842 0.08670769 -0.03285962 -0.1261044 0.14089769 0.28313005 0.27789223 0.17720619
0.043287884 -0.088456504 0.14165571 0.2452185 0.3748769 0.4971878 0.43341732 0.16709213
0.03427612 0.5054023 0.8196127 0.4415718 0.19680187 0.11358372 0.6486561 0.92183083
0.47299558 0.06509044 -0.252036 0.6054803 0.6169508 0.3692228 0.10027724 0.07121399
0.32416368 0.4976439 0.00946499 0.06464919 0.15161349 0.12973857 -0.15560263 -0.093381695
0.022687057 -0.18838122 -0.021951195 0.35801098 0.28969577 0.29702145 0.2797346 0.5162795
0.846063 0.9741032 0.5971869 0.307968 0.51709014 0.81444365 0.959742 0.48999748
0.047419917 0.46532512 0.58779323 0.4797966 0.46342325 0.037152708

feature.0.bias f4 [6]
00000000: 4bc8 23be a3ff 3f3e 2621 d83b 27db 0bbd
00000010: a2cd 5336 6273 073c
-0.15994374 0.18749861 0.0065957485 -0.034144547 3.1561144e-06 0.0082672555

feature.3.weight f4 [16, 6, 5, 5]
00000000: 41f2 37bd fa29 3d3b 0363 8bbc 5efb c4bb
00000010: 8ff6 703d f089 5e3d 1f2a 183c a98a c4bc
00000020: 4435 0cbd 86ae 10bb 352b 5b3d 9710 1c3d
00000030: da97 c63b 318e 013d a902 debc 4504 c73d
00000040: b10d 6cbd b5ef fabc 617b 82bd 4431 56ba
00000050: 6529 de3c 62c0 40bd bed2 5c3d d8e4 ae3c
00000060: 1d77 913c 456a 8cbd 3907 9bbd 789a 92bc
00000070: 0bb4 4dbc 0bbf 90bd 7b20 f5bc c2fe 96bd
00000080: 655e 8fbd 8ca2 ae3d 0318 e4bb e468 af3d
00000090: 4090 c6ba 68da a5bd bcfc a3bd f456 32bc
000000a0: 2069 9d3d 49e7 b4bc 3bea 83bd 0b9f 01bd
000000b0: 37a6 0abe c5f8 0d3d e672 8f3d 039a 433d
000000c0: 37db 753b 0168 a4bd 8536 07be 131e 18bd
000000d0: ab58 ca3c fc7c 05bd 3c7d 313d 3a26 b4bd
000000e0: e502 a1bd 03b6 e9bd 8d9a 29bd d63a 863d
000000f0: 94c5 1e3d bc6a 2a3d 169b d83d af81 aebd
00000100: 8fe5 30be 0443 6c3d 66f3 4a3e 2ea7 f43d
00000110: 682f b33d 0cb4 5cbd 3ac9 a63d a23e c9bc
00000120: 44ca 153d 9c21 fa3d 456d 793d 964f b9bd
00000130: 0d72 f9bc 51d4 b73b c317 aebc 3a04 92bd
00000140: 6964 b43b f760 b63a 246e a53c 8e31 a2bd
00000150: 2b30 7abd 0bcd ba3c 4dd9 923d 87b7 5dbd
00000160: dddb 1e3d 84b0 863c 4256 023c d228 8c3d
00000170: 709c 673d 8823 a9bd 31a9 9cbd 017d 0ebc
00000180: 0428 a7bd 182a 33bc 3691 85bd c82f 41bd
00000190: e377 fdbd 7351 15be 3813 acbd 5bc9 aabd
000001a0: 73b7 b63d 0364 b6bc 5900 cd3c b7d9 b03c
000001b0: a6e1 a0bd 156a 7ebc b1f4 3c3d 88a1 a73d
000001c0: 3a91 9f3d 0c58 6a3d d129 02be 6276 813c
000001d0: d639 1f3e 706b e13d 05ae 283b 77ad 77bc
000001e0: 0f0e 9e3d 9a17 f63d b9e9 1d3d f2d8 1a3e
000001f0: 83ed c83d 9c0d 59bc 0af9 cabd c61b 7fbd
00000200: cce6 21bc f862 033e e102 123d f9cc 0dbd
00000210: 287c 92bd 506f fdbd dece b73c dd21 c83d
00000220: 5cfc 773d c712 123c 58ba 8abd 4319 49be
00000230: 0e03 dd3d 1fc3 013e 4de7 f33d 173b 7b3d
00000240: 8596 09bd fa41 ab3c e6d5 82bd 2624 d6bc
00000250: cd93 e83d d6c7 d63b 9f0c 1f3d ac3f 2a3c
00000260: b2fc 0e3c e97a 62bd 7049 693c b51e fe3c
00000270: 65aa f83d b4cf 40bd d589 2f3c 6caa bb3d
00000280: 0f1d ab3d 34d3 ad3c 8d93 b2bd 66d1 c43c
00000290: f703 65bd 36bd 7fbd ab49 18b8 520d 993b
000002a0: b151 a03d aca8 c43c 1da8 b1bb d042 dcbc
000002b0: 07f6 12bc 7a0e f3bb e79d abbc 95d5 febc
000002c0: 9ae5 18bd cee9 463d 9d1a 6e3d ac5c 3e3c
000002d0: 53a7 853c 1b96 c0bb 28cf 3abd 2dc4 ecbb
000002e0: 4b27 813d b866 923c 6354 4ebd 9990 95bd
000002f0: 0dfa 3ebd 8814 dc3d 374d 6ebb c65b 213b
00000300: 36ae 73bd 67e2 4fbd 676a 11bd b1cf 1fbd
00000310: 9bd7 003c 978c 67bd 15e9 4e3d 4168 b13c
00000320: 3a24 2a3e dd30 2c3e c4a5 15be ef89 17be
00000330: 4134 0abc 7a02 5c3e 2f20 093e ed50 3fbe
00000340: 69b5 d6bd 91af 843d d9a1 303e c04a d43d
00000350: b8a0 24be 4a7a f1bd 23c5 993d a6cf c63d
00000360: a5a4 7d3d e0f4 0cbd e797 1c3d 6e72 1cbd
00000370: 6d79 60bd 7181 573d a387 c63d 5468 edbc
00000380: 0f19 d93c a3a1 fe3b 9d65 993c 5f82 833a
00000390: 41b3 e3bc 30b8 733c c574 a0bd 2830 06bd
000003a0: 4156 9e3c aeb5 b6bc dfbf 46bd b0fd 073d
000003b0: 150e 893d 30dd c7bb 84e2 1b3d 3f05 1fbc
000003c0: 3684 913d b34c 163b ed1e a43c 1291 353c
000003d0: 8b98 d2bc c7be 10bd f826 2dbc 5656 aa3d
000003e0: caee 393d 037e 43bc de7f 9a3d f5c8 5d3e
000003f0: f613 c0bd 1d6e e4bd 1405 b53b 3527 073e
-0.044908766 0.0028864131 -0.017014986 -0.0060114106 0.058828887 0.054330766 0.009287386 -0.0239919
-0.034230486 -0.002207668 0.053508002 0.03810176 0.0060605826 0.031629745 -0.027100878 0.09717611
-0.057630245 -0.03063188 -0.06371189 -0.00081707933 0.027119348 -0.04705847 0.053911917 0.021349356
0.017756993 -0.06856207 -0.07569737 -0.017895922 -0.012555133 -0.070676886 -0.029922714 -0.0737281
-0.07000426 0.08527097 -0.00696087 0.08564928 -0.0015149191 -0.08098298 -0.0800719 -0.010884989
0.07686067 -0.022082942 -0.0644116 -0.031645816 -0.13539968 0.034661073 0.07004337 0.0477543
0.0037514695 -0.0802765 -0.13204391 -0.037138056 0.024700483 -0.032589898 0.043332323 -0.08796354
-0.0786188 -0.11411669 -0.041407157 0.06554191 0.038762644 0.041605696 0.10576455 -0.08520829
-0.1727507 0.0576811 0.19819412 0.119459495 0.087492764 -0.053882644 0.0814385 -0.024565998
0.03656985 0.12213442 0.060895223 -0.09048383 -0.030449891 0.005610027 -0.021251565 -0.071297124
0.005505134 0.0013914396 0.02019412 -0.07919608 -0.061081093 0.02280285 0.07170353 -0.054130103
0.038783897 0.016441591 0.007955136 0.06843723 0.056545675 -0.0825873 -0.07649458 -0.008696795
-0.08161929 -0.010935329 -0.065218374 -0.04716471 -0.12376382 -0.14581852 -0.08402103 -0.08339187
0.08921709 -0.022264486 0.02502458 0.02158819 -0.07855539 -0.015528222 0.046131793 0.081851065
0.07791372 0.057212874 -0.12711264 0.01580352 0.15549406 0.1100682 0.002573849 -0.015117041
0.07717525 0.120162204 0.038552973 0.1512182 0.09810927 -0.013247874 -0.09910782 -0.062282346
-0.009881686 0.12830722 0.035647277 -0.034619305 -0.07152587 -0.12374747 0.02243751 0.09772084
0.060543403 0.00891561 -0.067738235 -0.19638543 0.10791598 0.12672089 0.119093515 0.06133565
-0.033590812 0.020905484 -0.06388454 -0.026140284 0.11356316 0.006554584 0.038830396 0.010391157
0.008727239 -0.055292998 0.0142387 0.031020502 0.12141875 -0.04707308 0.010714014 0.09163365
0.08355152 0.021218874 -0.08719549 0.02402563 -0.055911984 -0.062436305 -3.6308233e-05 0.0046707774
0.078280814 0.02400621 -0.005421652 -0.026887327 -0.00896979 -0.007417497 -0.020949317 -0.031107703
-0.03732834 0.048562817 0.05813085 0.011618774 0.016315138 -0.005877269 -0.045607716 -0.0072255344
0.06306323 0.017871246 -0.050373446 -0.073029704 -0.046625186 0.107461035 -0.0036361942 0.0024621352
-0.059492312 -0.050753023 -0.035501864 -0.03901643 0.007863904 -0.05653056 0.050515253 0.021656157
0.16615382 0.16815515 -0.14614016 -0.14798711 -0.00843531 0.2148532 0.13391183 -0.18683214
-0.1048382 0.06478799 0.1724924 0.1036582 -0.16076934 -0.11790903 0.07508304 0.097075745
0.061924595 -0.03441322 0.038230803 -0.038195066 -0.0548033 0.05261368 0.096938394 -0.028980412
0.026501207 0.0077707334 0.01872521 0.001003336 -0.027795436 0.014875457 -0.07834772 -0.03276077
0.019328238 -0.022303429 -0.048522826 0.03320092 0.06692139 -0.0060993657 0.03805782 -0.009705841
0.07105295 0.00229339 0.020034278 0.011081951 -0.025707504 -0.03533819 -0.010568373 0.083172485
0.045393743 -0.011931899 0.0754392 0.2165869 -0.09378807 -0.11153815 0.005524287 0.1319855

feature.3.bias f4 [16]
00000000: 4559 9c3d 21e9 a63c 2d0c 043c ac8b 4a3a
00000010: 903e 14bd d107 5b3d 4ab3 aa3b 5bd2 a5bd
00000020: 57f1 f8bc 5032 04bc 90d5 50bd eaef b1bd
00000030: 2d07 a23b 873d 5e3d deec 1c3d 4861 e93d
0.07634214 0.020374836 0.008059544 0.0007726501 -0.036192477 0.05347425 0.005209361 -0.08096763
-0.030388517 -0.008068636 -0.05098492 -0.08688338 0.004944703 0.054257896 0.03831183 0.11395508

classification.1.weight f4 [120, 400]
00000000: 941f 24bd 8115 d73c 5bb3 0fbd ed98 213d
00000010: 7b1d 4bbd 2427 11bd 3ea1 babc 7990 293d
00000020: 0431 293d c23c db3c cae8 16bd eb67 b33c
00000030: b36e 683c aa02 0a3c f6a0 48bc ecc9 143d
00000040: a4d5 0bbc 4089 94bc 5fe6 f43c 47ff a3bc
00000050: c840 e73b 0902 793a 69ad d73c 8d0e 57bc
00000060: 0449 023d 0043 48bc 65b5 29bd 5a0d 03bd
00000070: 8731 0c3c d065 263d 1f7a 26bd d7e3 a23c
00000080: d14f 66bb 04f0 39bd 3283 113d cdfd 29bd
00000090: d5a3 cebb a852 b93c 1ebd 75bb b360 263d
000000a0: fb32 063d de35 3bbd f231 0cbd 7ad0 25bd
000000b0: 4b91 3dbd e5f2 523a ad33 d1bb 99b7 4a3d
000000c0: 5956 c0bc 76eb 77bc 6eb3 483b 37a9 a0bc
000000d0: 027b 353d 8ef5 24bd f7c9 9abc 2ba3 bdbc
000000e0: 387f debb e008 2d3c c211 a3bc ba49 a23c
000000f0: 16de 353d e68d 04bc bebe 853c f262 023d
00000100: 600f a9bc f12d c3bc 381e 3abc 1284 283d
00000110: c6b3 31bd 02e1 243c 5e43 fdbc de8b 1dbd
00000120: 24d0 0f3c 35e8 1b3c af2f 6f3c 7aab c5bc
00000130: bfe6 983c c0bd 49bd 49fc f03a cb89 273d
00000140: 5ed3 aa3c b72a 1d3c d80e febc da6e 45bd
00000150: 7037 c63c ae15 96bc 3e4c 893b ef62 ad3b
00000160: afdc f33c d74f 1fbc c42e 423d 7a99 92bc
00000170: db36 2ebd 74c9 41bd 7563 4fbd 2fcc 14bc
00000180: 6e1b 633c e8c8 3c3d 2805 733c 83fd 40bd
00000190: 04ad 093c ea23 a43c fce9 e0bc fc11 2fbc
000001a0: 45b5 443d c1f5 91bc e164 c8bb a92e d8bb
000001b0: b923 043a d35f a3bc f3d2 b4bb b26f 583c
000001c0: 008a 59bc ced9 11bd d7e6 e5bc 5a51 3c3d
000001d0: cfad 233d 6b94 8dbc ea33 ae3c 8643 acbc
000001e0: 8496 07bd 812b 2fbd e159 0d3d c2e8 363d
000001f0: 527d 8d3c 0d99 5b3a 3f65 1bbc 6810 d9bc
00000200: 4b7d 4bbd 9c3e 2c3d 9e85 bbbc 2f78 76bc
00000210: b69f d43c 0ba4 f13c 2cde e6bc d97b b3bc
00000220: 5128 833b 4737 a83c af3c 673b 7076 3bbd
00000230: d7f9 103d 4769 87ba 896d cb3b caba 0f3d
00000240: 462f f03c 19c1 2e3c 0512 ffbc 5bb6 47bd
00000250: 0777 413d d28b b83c 066b d7bb 8a38 07bd
00000260: 68c3 08bd cb5e f0bb 0ba9 f83b 7823 3abd
00000270: a0d6 113d a21b 2c3d 9989 e2ba 790c 153d
00000280: 9a10 d8ba 3505 c7bc 6c5d 403d db3a d93c
00000290: 5b9b 0dbd 3e3e 203d 72fc 48bb 73da 3fbd
000002a0: ba50 ed3c 2d95 3bbd 3ff2 523c d31b 4bbd
000002b0: eff8 13bd faea f43c a6a1 d93c ce6d e4bc
000002c0: a0fa 8e3b 8ffc 46bb 0f84 273d 7c33 4bbd
000002d0: 67bf 6fba 359d cf3c 84e6 20bd e8fa 6e3c
000002e0: fe87 263d 30ab abbc 76d2 413d 575c 12bd
000002f0: 2c71 e43c 0779 34bc 9ce4 8d3b 6a14 8e3c
00000300: 6e24 683c a77c 04bd a5a6 b33c b038 9bbc
00000310: 696e 213d fa42 a83c 6f17 8fbc 793b 63bb
00000320: 9afd 393d a966 1fbd 1fe8 1e3d 3440 e4bc
00000330: 1a5d 1fbc 2a11 273d aad8 22bd 91d0 053b
00000340: 4a88 27bd d87a dbbc 1ea0 bcbc ece6 09bd
00000350: 1907 1e3d dc70 e6bc 7bdb 32bd 4c5c 1d3c
00000360: beb2 e7bc f846 1dbd 1fde a03c 7554 f5bc
00000370: 8ca6 07bd e809 833c 236a 5ebb 7d5b f33a
00000380: 40d4 093d 05d6 31bd 3677 2c3c 9b47 6abc
00000390: db56 aa3c 7611 423c 64fb 79ba 34d1 91bc
000003a0: e846 7bbc e2c7 8dbc 351a 33bd 2e29 4b3c
000003b0: 5392 6abc 5ff1 31bd 89a8 213d c729 9abc
000003c0: a906 e13c 5234 59bc 969f 2dbd 1089 89bc
000003d0: 21cd 24bc a645 fa3c 73c4 22bd a8d1 16bd
000003e0: 7e70 843c f50b f3bc a69f 1bbd 309d 92bc
000003f0: 2633 52bc 042e b93c 1349 9ebc e4d3 2bbc
-0.040069178 0.026255371 -0.035083156 0.039452482 -0.04958866 -0.035437718 -0.022781964 0.041397545
0.04130651 0.02676237 -0.0368431 0.021900138 0.014186549 0.008423487 -0.012245407 0.03632538
-0.008534823 -0.018131852 0.029895006 -0.020019187 0.007057283 0.00094988995 0.026327806 -0.013126028
0.031807914 -0.012223005 -0.041432757 -0.031995155 0.00855673 0.04062444 -0.040643808 0.019884033
-0.003514279 -0.045394912 0.03552551 -0.04150181 -0.0063061514 0.022622421 -0.0037496756 0.040619563
0.032763463 -0.04570567 -0.03422732 -0.040482022 -0.04628114 0.00080470584 -0.006384334 0.0494915
-0.023478674 -0.015131822 0.0030624527 -0.019611938 0.044306763 -0.04027324 -0.018895132 -0.023149094
-0.006790068 0.010561198 -0.019905929 0.019810546 0.04440125 -0.008090472 0.016326305 0.031832643
-0.020637214 -0.023825618 -0.011359744 0.041141577 -0.043384336 0.010063412 -0.030915912 -0.038463466
0.008777652 0.009515812 0.014598771 -0.024129618 0.018664716 -0.049253225 0.0018385734 0.040902894
0.02085274 0.009592704 -0.031012937 -0.04820142 0.024196357 -0.018320885 0.004189997 0.005291335
0.029768316 -0.009723625 0.04740788 -0.017895449 -0.042532783 -0.04731126 -0.05063196 -0.009081884
0.01386152 0.046090037 0.014832772 -0.047116768 0.008403067 0.020036656 -0.027455322 -0.01068544
0.048024435 -0.01781738 -0.0061155413 -0.006597359 0.00050407235 -0.019943153 -0.005518311 0.013210224
-0.013277531 -0.035608105 -0.028064175 0.04597602 0.03996068 -0.017282685 0.021264989 -0.021028291
-0.033102527 -0.042766098 0.034509543 0.04465557 0.017271671 0.00083769934 -0.009484588 -0.02649708
-0.049680036 0.042051896 -0.022890862 -0.015043302 0.025955062 0.029497167 -0.028182112 -0.021909641
0.004002609 0.02053417 0.0035283973 -0.045767248 0.035394516 -0.0010331058 0.006208126 0.035090245
0.029319417 0.010666155 -0.031136522 -0.048757892 0.047232654 0.022527609 -0.0065740375 -0.033012904
-0.03338948 -0.007335519 0.007588511 -0.045443982 0.035605073 0.04201854 -0.0017283439 0.036388848
-0.001648444 -0.024294475 0.046964094 0.026517322 -0.034571987 0.03912186 -0.0030668047 -0.04683919
0.028969157 -0.045796562 0.012875139 -0.049587082 -0.036126073 0.029897202 0.026566338 -0.02788439
0.004363373 -0.003036294 0.040897425 -0.049609646 -0.00091456476 0.025343517 -0.039282337 0.014586188
0.040657036 -0.020955652 0.04731985 -0.035732593 0.027885996 -0.011015183 0.004330231 0.017343719
0.014168842 -0.03234544 0.021930048 -0.01894793 0.039411936 0.02053975 -0.017467229 -0.00346729
0.04540787 -0.038916264 0.038795587 -0.027862646 -0.009726787 0.040787853 -0.03975741 0.0020418505
-0.04090146 -0.026791975 -0.023025569 -0.03366749 0.038580988 -0.028129987 -0.043666344 0.009604525
-0.028283473 -0.03839776 0.019637166 -0.029947499 -0.033117816 0.015995935 -0.0033937774 0.0018566694
0.033649683 -0.043416996 0.010526469 -0.014299299 0.020793369 0.011844983 -0.00095360563 -0.017799951
-0.01533673 -0.017307226 -0.043726165 0.012399955 -0.014317113 -0.04344308 0.03946737 -0.01881875
0.027468996 -0.013257103 -0.04238852 -0.01678899 -0.010058672 0.03055079 -0.03973813 -0.036821038
0.016166922 -0.029668787 -0.03799405 -0.017897218 -0.012829578 0.02260495 -0.019321954 -0.01048753

classification.1.bias f4 [120]
00000000: dc35 40bd ffb0 08bd ffd4 2d3d a8c2 353d
00000010: 3006 953d 1629 883c 0841 cfbc 8a50 c03b
00000020: 323c f9bb d723 783c b8af 133d 85f9 243c
00000030: d5a4 d8bc 5a0d cdbc aef3 a03c 450f 16bb
00000040: 0218 97bc b430 b7bc 9c98 1d3d eab3 69bc
00000050: dd2f 0c3d 1736 3d3d e9cf 53bd 023c b63c
00000060: ea12 4b3b cd91 363d 89cc d0bc 2264 1a3d
00000070: 795b 1cbc 0cec 253c aaaa 26bd bdda 9abb
00000080: c1df 49bc 5545 433d 25bc 7d3d e6e6 813d
00000090: c307 4d3d 289e 303d f098 f73c 94e0 7fba
000000a0: 6c20 2d3b 710d 5abb 3379 193c 12d9 01bd
000000b0: 8838 533c fa53 a63c 1954 9d3c c615 94bb
000000c0: b568 a43c 39d1 35bd cf72 a1bc 083d acbc
000000d0: 02b0 6d3c 8632 333d 9e75 c4bc 6d5d 0b3c
000000e0: 3a3e 743a 7724 443d 50cd 9fbb 2c75 173d
000000f0: 3a37 8f3c 9f77 10bd 37c5 14bc 6b5b 01bd
00000100: 1cae f8bb 577e 993c b5d9 2c3d 1913 983c
00000110: b212 3a3b 340c 54bc 3ae7 c5bc d4af b33c
00000120: 29f9 213d a758 43bd b90e c6bc 16a9 3a3c
00000130: 30e6 463d 08d4 96bb 3b20 c13c c560 2e3d
00000140: 3083 3cbd b2cd 0c3d 2714 f5bb 460d 18bd
00000150: 97ae b03c 8115 fc3c 8230 c23c f841 97bc
00000160: e9b4 093d dc4d 463d 7330 0ebd 9175 5e3c
00000170: 60ca 283d 7a3a 0f3d 0d15 15bd 6a83 17bd
00000180: 52a1 1dbc 1f0d 0f3d e3d3 9239 dd07 413c
00000190: 547e 76bc 3772 a7bc bd13 55b9 fcd3 5b3d
000001a0: abc3 9ebc 5ef9 413c 42f1 c5bb d180 403d
000001b0: 1f8a 323d 68cd f0bc c09b 1cbd 226e 1a3d
000001c0: 632e 1fbd b0ec d5bc fe20 30bd 8fed 1dbc
000001d0: 5400 c03b 96a0 3bbd 9a6e 91ba 39a9 febb
-0.046926364 -0.03337192 0.042439457 0.04437509 0.07276571 0.016621154 -0.025299564 0.005868976
-0.007606053 0.015145264 0.03605625 0.010069256 -0.026445786 -0.02503078 0.019647446 -0.0022897285
-0.018444065 -0.02236209 0.038475618 -0.014264086 0.034225333 0.046194162 -0.05171195 0.02224541
0.0030986615 0.04457264 -0.025488155 0.03769315 -0.009543293 0.010127079 -0.0406901 -0.0047257827
-0.0123214135 0.047673542 0.061947007 0.063428685 0.05005623 0.04311958 0.030224293 -0.0009760943
0.002641703 -0.0033272172 0.009367275 -0.031701155 0.012891896 0.020303715 0.01920514 -0.004519197
0.02006946 -0.044388983 -0.019708065 -0.021025196 0.014507296 0.043749355 -0.023981865 0.008506161
0.0009317134 0.047886338 -0.00487677 0.03697698 0.017482389 -0.03527033 -0.009080223 -0.031581324
-0.007589115 0.018737001 0.04219981 0.018563794 0.002839249 -0.012942363 -0.024158109 0.021934427
0.03954426 -0.047691967 -0.024176942 0.011392852 0.048559368 -0.004602913 0.023574939 0.042572755
-0.046023548 0.034375854 -0.007479209 -0.037122034 0.021567626 0.030771973 0.023704771 -0.018464074
0.033619795 0.048414096 -0.034714174 0.013577835 0.041208625 0.034967877 -0.03639703 -0.03699056
-0.009620981 0.034924623 0.00028005158 0.01178166 -0.015044767 -0.020440204 -0.00020320616 0.05366896
-0.019380411 0.011839239 -0.006040723 0.04699785 0.043588754 -0.02939482 -0.038234472 0.037702687
-0.038862597 -0.026113838 -0.043000214 -0.009639158 0.005859414 -0.045807444 -0.0011095584 -0.0077716378

classification.3.weight f4 [84, 120]
00000000: 031e 8b3c 101a 07bd bc5c 50bc 0c78 55bb
00000010: b058 9bbc 73de 503d 3533 5b3d 2d50 353c
00000020: b2e5 27bb bdad 933d 45ea 433d 5423 95bc
00000030: c49a 93bd 60ac b83d bf5a ba3c 0dea 83bc
00000040: fd1e 873d 4ae9 6b3d 93dd 333b 7529 9dbd
00000050: 18f7 443c 60ef 44bd df4b 6dbd 74c9 f33b
00000060: ddf5 f7bc ef80 063c 29de afbd 98b8 2abe
00000070: ad74 a6bc d2b5 9fbd 6c11 8fbc 0eac 9bbc
00000080: 9bc8 783d 3362 d2bd d0f6 a7bc 59f9 44bd
00000090: c00a 9dbd f80e a83d ce42 80bd d113 e2bd
000000a0: 1fc7 e23d da50 e73d a52a 54bc bb11 093d
000000b0: 2689 543d d8de 053d 1026 d8bd 0ddc e93c
000000c0: 5469 33bd edf3 cd3b f739 a0bc d932 06bd
000000d0: 5aaa 823c e7a1 173d 0b17 343d 9c29 1d3c
000000e0: 025b 04bd 50b8 2f3d ce7e 1c3d 8ffa 36bd
000000f0: 8750 a1bd b916 e83b accf 8abd 2b80 883d
00000100: 9319 4d3c 645a 33bd d7ef ad3d bcc7 023c
00000110: 9e2c 1f3d 73e2 c23d 6fd9 8abd 51d7 8d3d
00000120: 2cfa e63d f8c2 4fbd 4c41 9cb9 749f 74bd
00000130: d627 81bd 4e85 02bd 26a0 9d3c eab6 d3bc
00000140: 2c40 d3bc d5ca 92bc e8d6 9abd 3563 8cbd
00000150: 11b9 323d e76f ecbd 2ac5 d1bb 75bc 863d
00000160: 191d 89bd 437c aaba ede4 c7bd dd67 b03d
00000170: 5778 60bd a4a5 63bd 0fda a23c 5790 703c
00000180: 91c0 7a3c e944 e03c c180 003d 1bb1 943d
00000190: 7efe 1bbd faae 7fbd f287 c03d 4043 103e
000001a0: 3d9f 3ebd 56b3 dfbc 6ca4 2ebd 2aad 0bbd
000001b0: 434b 833c 5ff5 d4bc 2f43 9fbd cc2e 9f3d
000001c0: 5c27 86bd b879 d73d 8ecf 8e3d b674 163e
000001d0: 4baa 053d 1c48 cf3d f856 96bd bcfb 453d
000001e0: 139e acbb 5cf6 0e3d df68 31bd e9a9 c1bb
000001f0: b905 fe3b 960f 95bc 7f2a 28bc 43eb a43d
00000200: d512 b0bb 4a5a c93d 8e99 253d 5c00 803d
00000210: f83c 9a3d 3e6d c43c 7032 783d f8c1 ee3c
00000220: 07f5 13be dd7c 803b 7499 0a3e fb0f bd3b
00000230: fbc6 8e3b 9452 8d3d 2b97 0b3d 6961 963d
00000240: bfbd 3a3d eead 77bd f5d5 013b 9ec0 413d
00000250: 3018 a9bd 10bc dd3d 0003 e8bd 3dc8 cb3d
00000260: e55a 0f3e 4fa5 bdbc bd3b ce3d 359d 96bd
00000270: e116 f8bc 2de2 213e 36b7 623e ef29 f73d
00000280: 0ca0 223b 0c92 f23c 6062 8c3d 4fe1 69bc
00000290: a2bb 923d 3a64 a83d 80a9 0fbd f63e 09be
000002a0: 079b 39bd 84bc b7bd 7df2 ed3d 968d d93d
000002b0: d0de c8bd e307 b3ba bba9 44bd 394d 42be
000002c0: e396 8a3d fee0 d0bd 36c9 e8bc 365a 95bd
000002d0: 82bd 4ebd 7121 c9bd 4321 64bd 057b 8d3d
000002e0: 8277 49bc 166c 3abd 8fae 5c3d d346 953c
000002f0: c204 f6ba 30de bd3d bef0 24bd b6fc 5abd
00000300: 0f18 05bd ad52 8b3d d4e2 0dbc 17f0 d4bc
00000310: da25 aa3d e8f2 233d f18a d9bc 71b4 02be
00000320: 6759 353d 485a 1c3d 1a78 88bd b58a 903b
00000330: bb40 04ba 7bff 0e3e 8c22 6cbc b1ef d8bd
00000340: c443 debd 35c5 7a3d 1974 c33b 78e4 e9bd
00000350: f3fa 703d 5c4b 773d 343d ee3c 73eb cbbd
00000360: e506 aebd 3c91 45bd 2610 65bd 4043 8ebb
00000370: cb57 a93d 20db 63bd ffdb 8d3d 1c5b febd
00000380: c4c7 ddbc 4001 b83a 2d21 f93c 866f 003e
00000390: bec8 4cbd e5d0 163e 1bab 3ebc 6cbf 243d
000003a0: 1220 cdbb 79bf f13d 8e3e 54bd 585e 403c
000003b0: e832 01be 4ffe 53bd f279 ea3b e0c4 acbd
000003c0: 7c7b 5cbc d6b7 84bd 6d5c 643d 8b34 a8bd
000003d0: b4bb 0c3d 6b91 363d 8d0c a13d ec13 993d
000003e0: 48ba 803c e20c 6e3d 118a 0b3d f1ff d8bd
000003f0: c8ae 983d de3d a5bd 4771 44bd 51fe 82bd
0.016982084 -0.03298384 -0.012717422 -0.0032572774 -0.018963188 0.050993394 0.05351563 0.011066479
-0.0025619087 0.07210872 0.04783084 -0.018205322 -0.072072536 0.09017253 0.02274835 -0.016102815
0.065977074 0.05759553 0.00274453 -0.07673923 0.012021802 -0.04807985 -0.057933684 0.0074397866
-0.030268604 0.008209451 -0.085872956 -0.1667198 -0.020319307 -0.07798351 -0.017464362 -0.01900294
0.060738187 -0.10272636 -0.020503432 -0.04808936 -0.07668066 0.0820598 -0.06262742 -0.11038936
0.110731356 0.11294718 -0.01294962 0.033464175 0.051888607 0.032683223 -0.10554135 0.028547311
-0.04380162 0.0062851817 -0.01955889 -0.032763336 0.01595037 0.037019636 0.043967288 0.00959244
-0.032313354 0.042900383 0.038206868 -0.044672545 -0.078766875 0.007082787 -0.067778915 0.06665071
0.012518304 -0.043787375 0.084930114 0.007982191 0.03886091 0.09515848 -0.067797534 0.06925834
0.11278185 -0.050723046 -0.0002980329 -0.05972238 -0.06306426 -0.03186541 0.019241404 -0.025844056
-0.025787435 -0.017918983 -0.07560521 -0.0685486 0.043633524 -0.11544781 -0.0064016776 0.06578914
-0.06695003 -0.0013007004 -0.09760461 0.0861356 -0.054802265 -0.05557789 0.019879369 0.014682851
0.0153047005 0.027376609 0.03137279 0.07260343 -0.0380845 -0.06242273 0.094009295 0.14088154
-0.04653858 -0.027307194 -0.042637274 -0.03410069 0.016027099 -0.025995908 -0.07776486 0.07772598
-0.06550476 0.10521263 0.06973182 0.14692959 0.032633107 0.10121176 -0.07340807 0.048335776
-0.0052678674 0.034902915 -0.043312903 -0.0059101474 0.007752147 -0.018195909 -0.010264038 0.08052685
-0.0053733387 0.098316744 0.040429644 0.062500685 0.0753116 0.023977872 0.060594976 0.029145226
-0.1444894 0.003921135 0.135351 0.0057697273 0.0043572164 0.06900516 0.034079712 0.07342798
0.045591112 -0.060468607 0.0019811366 0.047302835 -0.082565665 0.10826886 -0.11328697 0.09950302
0.13999517 -0.023150114 0.10069988 -0.073542036 -0.030284347 0.15808935 0.22140202 0.12068545
0.0024814634 0.029610656 0.06854701 -0.014274909 0.07164694 0.08222242 -0.035073757 -0.13402924
-0.04531386 -0.089715034 0.116185166 0.106227085 -0.09808123 -0.0013658967 -0.04801343 -0.1897477
0.067670606 -0.10199164 -0.028416257 -0.07292597 -0.050473697 -0.098208316 -0.055695783 0.0690823
-0.012296559 -0.045513235 0.05387741 0.018222248 -0.0018769728 0.092708945 -0.040268652 -0.05346366
-0.032493647 0.068028785 -0.008660037 -0.02599339 0.08308001 0.040026575 -0.02655551 -0.12764145
0.044274714 0.038172036 -0.066635326 0.0044110664 -0.0005045046 0.13964646 -0.0144125335 -0.105925925
-0.10852769 0.061223228 0.0059647677 -0.1142053 0.058833074 0.060374603 0.029081918 -0.09957018
-0.08497409 -0.04823421 -0.055923603 -0.004341513 0.08268698 -0.055628896 0.069267265 -0.124197215
-0.027072795 0.0014038458 0.030411327 0.12542543 -0.04999613 0.14728124 -0.011637474 0.040221617
-0.0062599266 0.11804099 -0.05181747 0.011741243 -0.12617075 -0.0517562 0.0071556503 -0.084359884
-0.013457175 -0.064803764 0.055752207 -0.08213147 0.034358695 0.044572275 0.07863722 0.07474503
0.015713826 0.058117755 0.034067217 -0.10595692 0.07455212 -0.08068441 -0.047959592 -0.06396163

classification.3.bias f4 [84]
00000000: c964 90bc 28b1 713d d227 633d f4dd 63bb
00000010: 3fae d13c 646d c83c 504a 73bd 94e6 80bd
00000020: 900a 873d 5093 293d dd80 203d 6016 f73c
00000030: 259e 353d 1968 9e3d c16f b6ba d100 b73d
00000040: d7b7 a8bc 36d0 bebc 1c35 8e3d 36b3 b5bd
00000050: 907f bfbd 177b d73c 1c3a bb3b 5034 8b3c
00000060: a97a c5bb 31a5 91bd c317 7fbd 3ad9 a8bb
00000070: 0685 b53d 9189 813d 302f 913d 7229 8b3d
00000080: 5c61 d03c fadc a93d 3a9f 863d b239 debb
00000090: a290 83bc 0ff2 4a3d 6e30 4c3d 14e6 98bd
000000a0: 3652 993d a169 ba3b 17e6 ab3d 8371 ed3c
000000b0: b6c7 603d 891d 903d ff3e b93d 9991 513d
000000c0: c7eb a73d 2894 8abc 248b d63d 184d 823d
000000d0: 2d23 93bd d3eb dcbc afe2 3d3d bd31 533d
000000e0: a714 073b d665 3dbd d4b0 483d 492a 93bb
000000f0: 2b5c 98bc 51c0 3ebd e31e 0c3d be55 a93d
00000100: 0777 b1bd ea7a 84bd 2fdf 193d 47fc bc3d
00000110: b5b1 d83d 00db e33c 79da b63d d168 bbbd
00000120: 5428 c83d 1109 6dbc d0e9 a93d a1d1 c63d
00000130: de83 99bd 39cc 4ebd 9b7e a33d f328 6c3d
00000140: cd88 52bd e5ce aa3d a4aa 8a3d 5a20 9ebd
-0.017626183 0.05900684 0.055457897 -0.0034769746 0.025595782 0.024466224 -0.05939704 -0.06293979
0.065938115 0.041400254 0.039185394 0.030162036 0.04434027 0.07734699 -0.0013918803 0.089357026
-0.020595474 -0.023292642 0.069437236 -0.088720724 -0.093505025 0.026303811 0.0057137143 0.016992718
-0.006026585 -0.07111586 -0.06227852 -0.0051528485 0.08863263 0.06325067 0.070890784 0.067950144
0.02543705 0.08294101 0.06573339 -0.00678178 -0.016060177 0.04954725 0.049850874 -0.07465759
0.074863836 0.0056888615 0.083934955 0.02898479 0.05487796 0.070368834 0.09045219 0.051164243
0.08199268 -0.01691635 0.10475758 0.06362361 -0.071844436 -0.026967919 0.04635876 0.051561106
0.0020611675 -0.046239696 0.04899676 -0.004491125 -0.018598637 -0.046570126 0.034209143 0.08268307
-0.08665281 -0.064687565 0.03756636 0.092278056 0.1058077 0.027814388 0.08928389 -0.091508515
0.09773317 -0.014467494 0.08296549 0.09707952 -0.07495855 -0.05048773 0.079831325 0.05765624
-0.051399995 0.08340243 0.06770828 -0.07721014

classification.5.weight f4 [10, 84]
00000000: 1f3a dbbd 0ee3 723d a3c9 453d 531c 233e
00000010: db83 b8bd 8693 fe3d 4b18 47bd 2d49 fe3d
00000020: 7eb6 883e 1b4d de3d cd82 9ebe 896d e83c
00000030: 5a9e a8bd d8eb 89be 29b2 44bb 6946 63bd
00000040: 59fb 47bd 7072 ed3b 9cbe 493e fbcf 29bd
00000050: a724 aebc 8445 c3bd 7d3d 4cbe 474c 943d
00000060: 9a46 083d 30d9 c5bd f0bd 31be 7c33 5d3d
00000070: 25af 27be 7e00 05be ffb8 9a3e 442f edbd
00000080: 9f51 303e f44e 33be 4797 053d 3877 85be
00000090: 798e b03d 40b9 723e 4a51 023d baae 02be
000000a0: 0e66 c63d f2c9 d43d 9ead 97bd aced 51be
000000b0: 3dfe b33d 76bb 243e dd01 91bd cc79 3e3e
000000c0: d647 553e 8a41 63bd ce2c f6bb db20 a2be
000000d0: 5e6b 003d 9866 3a3e 2a14 8dbe 2176 553e
000000e0: 44af c13d d013 1cbd 22a9 2cbe 103b b43e
000000f0: 66bd efbd 6659 f33c 7137 9d3d 00ba 38bd
00000100: 776f a23c 34e8 023e f6aa 85be 4458 44be
00000110: c561 09be 096a 073d 23e9 553d 4b0c a8bd
00000120: 41f0 74bd fb08 3cbe 7805 dabd 155f 9dbe
00000130: e8cd fd3d 25fe 023e 4199 ab3e f218 2b3c
00000140: 127e cabc ec02 50be c1ea 7ebe cc9a 743e
00000150: 30a1 0fbe 9c99 a1be 32e1 14bd 099b 4fbd
00000160: 798d 3a3c 7370 363e 8cec 9dbd edc5 ddbd
00000170: 114d 98be a55f 9bbd 64f7 8e3e 75fb 23be
00000180: 1a82 a1be bbf8 57bd fe82 2fbe 6a1f 043d
00000190: aa35 dd3c 4b6c 6a3d 30bc 03be 51c8 da3d
000001a0: 1598 b0bd 4d61 b63d 807a 4bbe f55d b33c
000001b0: ca0e 26be b543 473d 3cd7 7fbd 422e 1bbc
000001c0: c5f9 143d 1096 50ba 3d80 9c3e d4c2 3839
000001d0: 7cf2 d93d 17f3 983e ee3c eabd 8d58 abbc
000001e0: a20c 0bbd a411 0d3d ad93 e1bd 4186 213e
000001f0: 774a 75be 932f 31bd 5c5b 2f3e 3011 a13d
00000200: 9fff cc3d 6caa 73be 9b84 053d 1dc4 6bbd
00000210: 598c 913d e64c f3bd f48b 823e 12b8 453e
00000220: 4a80 ec3c 5198 743c f393 51be e3cd 743c
00000230: 2f3c 2e3e a897 e03d ad44 4cbe 8cd2 e7bc
00000240: 022d 9a3e fbad 4b3d df1a 383d 1c4f 99be
00000250: efa6 853e 7170 543e 7c06 c4bd 72e1 fabd
00000260: f3ae 8cbd 2950 80be e9cb 09be 08c0 253e
00000270: f148 903d 0f05 383e df38 64be 59d3 d73d
00000280: 1526 953e 9d35 813d d3dc ce3d ef08 c93d
00000290: c2d4 223c 0ef8 7d3e e18b 253e 05f9 113e
000002a0: 68e9 a83d 628b 85be b842 38bb 7b08 12be
000002b0: 684e fcbd 2715 8f3e abd4 a23e 80e1 49bd
000002c0: 40b2 593d 5a5f ec3e c8d0 f93d 7da1 efbd
000002d0: 82de 36bd 7000 153c 375b 9b3d 6316 9e3c
000002e0: 8147 593d f733 e23d 6f13 183d 5fa9 333d
000002f0: 3b11 4bbd 3a0a 92bd cf09 943e 3e29 823e
00000300: 3a28 53be 74a7 ccbc a8ef 553e 61bb cabd
00000310: d3e8 53be 0ba0 c63d d957 9dbe aea9 a23e
00000320: 9ee2 87be 44be 0d3e cba6 0c3e c676 c63b
00000330: 6c2b c83b d2b5 66bc ecf4 d8bd 25c2 b43d
00000340: 11ff 5e3e 1cec cd3d 465b bdbd aa49 d3be
00000350: 2803 4e3e fb6e f53c b9bd 62be 08f1 53bd
00000360: ef44 1abe 4ebc 233e b621 96bc 8ea9 1fbe
00000370: 440f d7bd 078f 3a3e 7717 7f3d ea4a 393e
00000380: 4503 4cbe b2d5 52be ee8c a03d b23d 44be
00000390: 5c7b bc3d 976d 32bc b98d 0d3e 865a a03d
000003a0: d71b b6bc ac1f 0ebe 0812 853c a0db e63d
000003b0: 796e 843e 8706 c23e 2595 1dbe 9684 b73b
000003c0: 9278 553e 4339 ffbd df3a 6dbe afcf 0cbe
000003d0: 976d 0fbe 5c23 173e fbd6 093e 916c 51be
000003e0: fd28 c7bd d28a 7d3c 5148 b8be e685 87be
000003f0: b891 dfbd b40c 8b3e e256 febd 4204 e0bd
-0.10704445 0.059298567 0.048288 0.15928774 -0.090095244 0.124304816 -0.048607152 0.12416301
0.2670173 0.108545505 -0.30959168 0.028372543 -0.08233328 -0.26937747 -0.0030013418 -0.05548707
-0.04882369 0.007246308 0.19701618 -0.04145811 -0.021257712 -0.095347434 -0.19945331 0.07241111
0.033270456 -0.09660566 -0.17357612 0.054004177 -0.16375406 -0.12988469 0.30219266 -0.11581281
0.17218636 -0.17510587 0.032614972 -0.2606752 0.086209245 0.2370348 0.031815805 -0.12761965
0.09687434 0.103900805 -0.07406162 -0.20500821 0.087887265 0.16087136 -0.070804335 0.1860115
0.20828184 -0.055482425 -0.0075126654 -0.31665692 0.031352393 0.18203199 -0.27554446 0.20845844
0.094572574 -0.038104832 -0.16861394 0.3520131 -0.11706047 0.029705714 0.0767659 -0.04509926
0.019828541 0.12783891 -0.26106995 -0.19174296 -0.13416202 0.033060107 0.05222429 -0.0820547
-0.059799436 -0.18362801 -0.10645574 -0.30736604 0.12392789 0.12792261 0.3351536 0.010442959
-0.024718318 -0.20313615 -0.24894239 0.23887175 -0.14026332 -0.31562507 -0.036347575 -0.050684962
0.011386269 0.17816333 -0.07711133 -0.10828767 -0.29746297 -0.07586602 0.2792312 -0.16013892
-0.31544572 -0.052727442 -0.17139813 0.03225652 0.027003128 0.057232182 -0.12864757 0.106827386
-0.08622757 0.089052774 -0.19870949 0.021895388 -0.16216579 0.048648555 -0.062461123 -0.009471478
0.03637101 -0.00079569314 0.30566588 0.00017620187 0.10641953 0.29872963 -0.11437403 -0.020916248
-0.033947594 0.03444065 -0.11014495 0.1577387 -0.23954187 -0.04325826 0.17124695 0.078646064
0.10009693 -0.2379548 0.032597166 -0.057560075 0.07106847 -0.118799016 0.254974 0.19308499
0.028869767 0.014928893 -0.20466594 0.014941665 0.17015146 0.10966426 -0.19948073 -0.028298639
0.30112463 0.049726468 0.0449475 -0.29943168 0.26103923 0.20746018 -0.09571549 -0.122500315
-0.068693064 -0.25061157 -0.13456692 0.16186535 0.070451625 0.1797068 -0.2228732 0.10538358
0.29130617 0.06309054 0.101007126 0.09816157 0.009938421 0.24801657 0.16166641 0.1425515
0.08247644 -0.26082903 -0.002811594 -0.14261048 -0.12319642 0.27945825 0.31802878 -0.04928732
0.053148508 0.46166497 0.12198025 -0.11700723 -0.044645794 0.009094343 0.07585757 0.019297784
0.053046707 0.11045068 0.03712791 0.043862697 -0.04957698 -0.07130857 0.28913733 0.2542209
-0.20620814 -0.024982192 0.20892203 -0.09899021 -0.20694284 0.096984945 -0.30731085 0.3177008
-0.26540083 0.13842112 0.13735501 0.0060566394 0.006108692 -0.014081435 -0.1059359 0.08826093
0.21776988 0.100548 -0.09245925 -0.4126714 0.20118392 0.029960146 -0.22142686 -0.051743537
-0.15065359 0.15989801 -0.018326622 -0.15592024 -0.105009586 0.18218623 0.062278237 0.18094984
-0.19923122 -0.20589331 0.0783938 -0.1916416 0.092032164 -0.010890386 0.13823594 0.07829766
-0.022230072 -0.1387927 0.01624395 0.11272359 0.25865534 0.37895605 -0.15388925 0.0056005223
0.20846775 -0.12462094 -0.23166989 -0.137511 -0.14006649 0.14759582 0.13460915 -0.20451571
-0.09724615 0.015474992 -0.35992673 -0.26469344 -0.109164655 0.2715813 -0.12418915 -0.10938312

classification.5.bias f4 [10]
00000000: b908 0dbe 3324 52bb 5de0 55bd a2a0 a3bd
00000010: d1c3 abbd 4e7e e63c 2c29 2dbb 1c90 d8bc
00000020: 3b57 88bc 2df3 f4bc
-0.13772859 -0.0032065033 -0.052215923 -0.07989623 -0.083869584 0.028136399 -0.0026422245 -0.026435904
-0.016643157 -0.029901111
